<?xml version="1.0"?>
<net name="Model3" version="11">
	<layers>
		<layer id="2" name="sample" type="Parameter" version="opset1">
			<data shape="2,4,64,64" element_type="f32" />
			<rt_info>
				<attribute name="old_api_map_element_type" version="0" value="f16" />
			</rt_info>
			<output>
				<port id="0" precision="FP32" names="sample">
					<dim>2</dim>
					<dim>4</dim>
					<dim>64</dim>
					<dim>64</dim>
				</port>
			</output>
		</layer>
		<layer id="1" name="timestep" type="Parameter" version="opset1">
			<data shape="" element_type="f64" />
			<rt_info>
				<attribute name="old_api_map_element_type" version="0" value="f16" />
			</rt_info>
			<output>
				<port id="0" precision="FP64" names="timestep" />
			</output>
		</layer>
		<layer id="0" name="encoder_hidden_states" type="Parameter" version="opset1">
			<data shape="2,77,768" element_type="f32" />
			<rt_info>
				<attribute name="old_api_map_element_type" version="0" value="f16" />
			</rt_info>
			<output>
				<port id="0" precision="FP32" names="encoder_hidden_states">
					<dim>2</dim>
					<dim>77</dim>
					<dim>768</dim>
				</port>
			</output>
		</layer>
		<layer id="3" name="Constant_33410_compressed" type="Const" version="opset1">
			<data element_type="f16" shape="320, 4, 3, 3" offset="0" size="23040" />
			<output>
				<port id="0" precision="FP16" names="124,weight.227">
					<dim>320</dim>
					<dim>4</dim>
					<dim>3</dim>
					<dim>3</dim>
				</port>
			</output>
		</layer>
		<layer id="4" name="Constant_33410" type="Convert" version="opset1">
			<data destination_type="f32" />
			<rt_info>
				<attribute name="decompression" version="0" />
			</rt_info>
			<input>
				<port id="0" precision="FP16">
					<dim>320</dim>
					<dim>4</dim>
					<dim>3</dim>
					<dim>3</dim>
				</port>
			</input>
			<output>
				<port id="1" precision="FP32">
					<dim>320</dim>
					<dim>4</dim>
					<dim>3</dim>
					<dim>3</dim>
				</port>
			</output>
		</layer>
		<layer id="5" name="__module.conv_in/aten::_convolution/Convolution" type="Convolution" version="opset1">
			<data strides="1, 1" dilations="1, 1" pads_begin="1, 1" pads_end="1, 1" auto_pad="explicit" />
			<input>
				<port id="0" precision="FP32">
					<dim>2</dim>
					<dim>4</dim>
					<dim>64</dim>
					<dim>64</dim>
				</port>
				<port id="1" precision="FP32">
					<dim>320</dim>
					<dim>4</dim>
					<dim>3</dim>
					<dim>3</dim>
				</port>
			</input>
			<output>
				<port id="2" precision="FP32">
					<dim>2</dim>
					<dim>320</dim>
					<dim>64</dim>
					<dim>64</dim>
				</port>
			</output>
		</layer>
		<layer id="6" name="__module.conv_in/aten::_convolution/Reshape_compressed" type="Const" version="opset1">
			<data element_type="f16" shape="1, 320, 1, 1" offset="23040" size="640" />
			<output>
				<port id="0" precision="FP16">
					<dim>1</dim>
					<dim>320</dim>
					<dim>1</dim>
					<dim>1</dim>
				</port>
			</output>
		</layer>
		<layer id="7" name="__module.conv_in/aten::_convolution/Reshape" type="Convert" version="opset1">
			<data destination_type="f32" />
			<rt_info>
				<attribute name="decompression" version="0" />
			</rt_info>
			<input>
				<port id="0" precision="FP16">
					<dim>1</dim>
					<dim>320</dim>
					<dim>1</dim>
					<dim>1</dim>
				</port>
			</input>
			<output>
				<port id="1" precision="FP32">
					<dim>1</dim>
					<dim>320</dim>
					<dim>1</dim>
					<dim>1</dim>
				</port>
			</output>
		</layer>
		<layer id="8" name="__module.conv_in/aten::_convolution/Add" type="Add" version="opset1">
			<data auto_broadcast="numpy" />
			<input>
				<port id="0" precision="FP32">
					<dim>2</dim>
					<dim>320</dim>
					<dim>64</dim>
					<dim>64</dim>
				</port>
				<port id="1" precision="FP32">
					<dim>1</dim>
					<dim>320</dim>
					<dim>1</dim>
					<dim>1</dim>
				</port>
			</input>
			<output>
				<port id="2" precision="FP32" names="129,input.7">
					<dim>2</dim>
					<dim>320</dim>
					<dim>64</dim>
					<dim>64</dim>
				</port>
			</output>
		</layer>
		<layer id="9" name="__module.down_blocks.0.resnets.0.norm1/aten::group_norm/Constant" type="Const" version="opset1">
			<data element_type="i32" shape="3" offset="23680" size="12" />
			<rt_info>
				<attribute name="precise" version="0" />
			</rt_info>
			<output>
				<port id="0" precision="I32">
					<dim>3</dim>
				</port>
			</output>
		</layer>
		<layer id="10" name="__module.down_blocks.0.resnets.0.norm1/aten::group_norm/Reshape" type="Reshape" version="opset1">
			<data special_zero="true" />
			<input>
				<port id="0" precision="FP32">
					<dim>2</dim>
					<dim>320</dim>
					<dim>64</dim>
					<dim>64</dim>
				</port>
				<port id="1" precision="I32">
					<dim>3</dim>
				</port>
			</input>
			<output>
				<port id="2" precision="FP32">
					<dim>2</dim>
					<dim>32</dim>
					<dim>40960</dim>
				</port>
			</output>
		</layer>
		<layer id="11" name="__module.down_blocks.0.resnets.0.norm1/aten::group_norm/Constant_1" type="Const" version="opset1">
			<data element_type="i32" shape="1" offset="23692" size="4" />
			<output>
				<port id="0" precision="I32">
					<dim>1</dim>
				</port>
			</output>
		</layer>
		<layer id="12" name="__module.down_blocks.0.resnets.0.norm1/aten::group_norm/MVN" type="MVN" version="opset6">
			<data eps="9.9999997473787516e-06" normalize_variance="true" eps_mode="INSIDE_SQRT" />
			<input>
				<port id="0" precision="FP32">
					<dim>2</dim>
					<dim>32</dim>
					<dim>40960</dim>
				</port>
				<port id="1" precision="I32">
					<dim>1</dim>
				</port>
			</input>
			<output>
				<port id="2" precision="FP32">
					<dim>2</dim>
					<dim>32</dim>
					<dim>40960</dim>
				</port>
			</output>
		</layer>
		<layer id="13" name="__module.down_blocks.0.resnets.0.norm1/aten::group_norm/ShapeOf" type="Const" version="opset1">
			<data element_type="i32" shape="4" offset="23696" size="16" />
			<rt_info>
				<attribute name="precise" version="0" />
			</rt_info>
			<output>
				<port id="0" precision="I32">
					<dim>4</dim>
				</port>
			</output>
		</layer>
		<layer id="14" name="__module.down_blocks.0.resnets.0.norm1/aten::group_norm/Reshape_1" type="Reshape" version="opset1">
			<data special_zero="true" />
			<input>
				<port id="0" precision="FP32">
					<dim>2</dim>
					<dim>32</dim>
					<dim>40960</dim>
				</port>
				<port id="1" precision="I32">
					<dim>4</dim>
				</port>
			</input>
			<output>
				<port id="2" precision="FP32">
					<dim>2</dim>
					<dim>320</dim>
					<dim>64</dim>
					<dim>64</dim>
				</port>
			</output>
		</layer>
		<layer id="15" name="Constant_142566_compressed" type="Const" version="opset1">
			<data element_type="f16" shape="1, 320, 1, 1" offset="23712" size="640" />
			<output>
				<port id="0" precision="FP16">
					<dim>1</dim>
					<dim>320</dim>
					<dim>1</dim>
					<dim>1</dim>
				</port>
			</output>
		</layer>
		<layer id="16" name="Constant_142566" type="Convert" version="opset1">
			<data destination_type="f32" />
			<rt_info>
				<attribute name="decompression" version="0" />
			</rt_info>
			<input>
				<port id="0" precision="FP16">
					<dim>1</dim>
					<dim>320</dim>
					<dim>1</dim>
					<dim>1</dim>
				</port>
			</input>
			<output>
				<port id="1" precision="FP32">
					<dim>1</dim>
					<dim>320</dim>
					<dim>1</dim>
					<dim>1</dim>
				</port>
			</output>
		</layer>
		<layer id="17" name="__module.down_blocks.0.resnets.0.norm1/aten::group_norm/Multiply" type="Multiply" version="opset1">
			<data auto_broadcast="numpy" />
			<input>
				<port id="0" precision="FP32">
					<dim>2</dim>
					<dim>320</dim>
					<dim>64</dim>
					<dim>64</dim>
				</port>
				<port id="1" precision="FP32">
					<dim>1</dim>
					<dim>320</dim>
					<dim>1</dim>
					<dim>1</dim>
				</port>
			</input>
			<output>
				<port id="2" precision="FP32">
					<dim>2</dim>
					<dim>320</dim>
					<dim>64</dim>
					<dim>64</dim>
				</port>
			</output>
		</layer>
		<layer id="18" name="Constant_142567_compressed" type="Const" version="opset1">
			<data element_type="f16" shape="1, 320, 1, 1" offset="24352" size="640" />
			<output>
				<port id="0" precision="FP16">
					<dim>1</dim>
					<dim>320</dim>
					<dim>1</dim>
					<dim>1</dim>
				</port>
			</output>
		</layer>
		<layer id="19" name="Constant_142567" type="Convert" version="opset1">
			<data destination_type="f32" />
			<rt_info>
				<attribute name="decompression" version="0" />
			</rt_info>
			<input>
				<port id="0" precision="FP16">
					<dim>1</dim>
					<dim>320</dim>
					<dim>1</dim>
					<dim>1</dim>
				</port>
			</input>
			<output>
				<port id="1" precision="FP32">
					<dim>1</dim>
					<dim>320</dim>
					<dim>1</dim>
					<dim>1</dim>
				</port>
			</output>
		</layer>
		<layer id="20" name="__module.down_blocks.0.resnets.0.norm1/aten::group_norm/Add" type="Add" version="opset1">
			<data auto_broadcast="numpy" />
			<input>
				<port id="0" precision="FP32">
					<dim>2</dim>
					<dim>320</dim>
					<dim>64</dim>
					<dim>64</dim>
				</port>
				<port id="1" precision="FP32">
					<dim>1</dim>
					<dim>320</dim>
					<dim>1</dim>
					<dim>1</dim>
				</port>
			</input>
			<output>
				<port id="2" precision="FP32" names="167,input.9">
					<dim>2</dim>
					<dim>320</dim>
					<dim>64</dim>
					<dim>64</dim>
				</port>
			</output>
		</layer>
		<layer id="21" name="__module.conv_act/aten::silu/Swish" type="Swish" version="opset4">
			<input>
				<port id="0" precision="FP32">
					<dim>2</dim>
					<dim>320</dim>
					<dim>64</dim>
					<dim>64</dim>
				</port>
			</input>
			<output>
				<port id="1" precision="FP32" names="168,hidden_states.1">
					<dim>2</dim>
					<dim>320</dim>
					<dim>64</dim>
					<dim>64</dim>
				</port>
			</output>
		</layer>
		<layer id="22" name="Constant_33518_compressed" type="Const" version="opset1">
			<data element_type="f16" shape="320, 320, 3, 3" offset="24992" size="1843200" />
			<output>
				<port id="0" precision="FP16" names="170,weight.231">
					<dim>320</dim>
					<dim>320</dim>
					<dim>3</dim>
					<dim>3</dim>
				</port>
			</output>
		</layer>
		<layer id="23" name="Constant_33518" type="Convert" version="opset1">
			<data destination_type="f32" />
			<rt_info>
				<attribute name="decompression" version="0" />
			</rt_info>
			<input>
				<port id="0" precision="FP16">
					<dim>320</dim>
					<dim>320</dim>
					<dim>3</dim>
					<dim>3</dim>
				</port>
			</input>
			<output>
				<port id="1" precision="FP32">
					<dim>320</dim>
					<dim>320</dim>
					<dim>3</dim>
					<dim>3</dim>
				</port>
			</output>
		</layer>
		<layer id="24" name="__module.down_blocks.0.resnets.0.conv1/aten::_convolution/Convolution" type="Convolution" version="opset1">
			<data strides="1, 1" dilations="1, 1" pads_begin="1, 1" pads_end="1, 1" auto_pad="explicit" />
			<input>
				<port id="0" precision="FP32">
					<dim>2</dim>
					<dim>320</dim>
					<dim>64</dim>
					<dim>64</dim>
				</port>
				<port id="1" precision="FP32">
					<dim>320</dim>
					<dim>320</dim>
					<dim>3</dim>
					<dim>3</dim>
				</port>
			</input>
			<output>
				<port id="2" precision="FP32">
					<dim>2</dim>
					<dim>320</dim>
					<dim>64</dim>
					<dim>64</dim>
				</port>
			</output>
		</layer>
		<layer id="25" name="__module.down_blocks.0.resnets.0.conv1/aten::_convolution/Reshape_compressed" type="Const" version="opset1">
			<data element_type="f16" shape="1, 320, 1, 1" offset="1868192" size="640" />
			<output>
				<port id="0" precision="FP16">
					<dim>1</dim>
					<dim>320</dim>
					<dim>1</dim>
					<dim>1</dim>
				</port>
			</output>
		</layer>
		<layer id="26" name="__module.down_blocks.0.resnets.0.conv1/aten::_convolution/Reshape" type="Convert" version="opset1">
			<data destination_type="f32" />
			<rt_info>
				<attribute name="decompression" version="0" />
			</rt_info>
			<input>
				<port id="0" precision="FP16">
					<dim>1</dim>
					<dim>320</dim>
					<dim>1</dim>
					<dim>1</dim>
				</port>
			</input>
			<output>
				<port id="1" precision="FP32">
					<dim>1</dim>
					<dim>320</dim>
					<dim>1</dim>
					<dim>1</dim>
				</port>
			</output>
		</layer>
		<layer id="27" name="__module.down_blocks.0.resnets.0.conv1/aten::_convolution/Add" type="Add" version="opset1">
			<data auto_broadcast="numpy" />
			<input>
				<port id="0" precision="FP32">
					<dim>2</dim>
					<dim>320</dim>
					<dim>64</dim>
					<dim>64</dim>
				</port>
				<port id="1" precision="FP32">
					<dim>1</dim>
					<dim>320</dim>
					<dim>1</dim>
					<dim>1</dim>
				</port>
			</input>
			<output>
				<port id="2" precision="FP32" names="175,hidden_states.3">
					<dim>2</dim>
					<dim>320</dim>
					<dim>64</dim>
					<dim>64</dim>
				</port>
			</output>
		</layer>
		<layer id="28" name="27" type="Const" version="opset1">
			<data element_type="i32" shape="" offset="1868832" size="4" />
			<output>
				<port id="0" precision="I32" names="27" />
			</output>
		</layer>
		<layer id="29" name="aten::unsqueeze/Unsqueeze" type="Unsqueeze" version="opset1">
			<input>
				<port id="0" precision="FP64" />
				<port id="1" precision="I32" />
			</input>
			<output>
				<port id="2" precision="FP64" names="28,36,timesteps.1">
					<dim>1</dim>
				</port>
			</output>
		</layer>
		<layer id="30" name="aten::expand/Select" type="Const" version="opset1">
			<data element_type="i32" shape="1" offset="23692" size="4" />
			<rt_info>
				<attribute name="precise" version="0" />
			</rt_info>
			<output>
				<port id="0" precision="I32">
					<dim>1</dim>
				</port>
			</output>
		</layer>
		<layer id="31" name="aten::expand/Broadcast_2" type="Broadcast" version="opset3">
			<data mode="bidirectional" />
			<input>
				<port id="0" precision="FP64">
					<dim>1</dim>
				</port>
				<port id="1" precision="I32">
					<dim>1</dim>
				</port>
			</input>
			<output>
				<port id="2" precision="FP64" names="43,timesteps">
					<dim>2</dim>
				</port>
			</output>
		</layer>
		<layer id="32" name="__module.time_proj/aten::slice/Unsqueeze" type="Const" version="opset1">
			<data element_type="i32" shape="1" offset="1868832" size="4" />
			<rt_info>
				<attribute name="precise" version="0" />
			</rt_info>
			<output>
				<port id="0" precision="I32">
					<dim>1</dim>
				</port>
			</output>
		</layer>
		<layer id="33" name="__module.time_proj/aten::slice/Unsqueeze_1" type="Const" version="opset1">
			<data element_type="i64" shape="1" offset="1868836" size="8" />
			<rt_info>
				<attribute name="precise" version="0" />
			</rt_info>
			<output>
				<port id="0" precision="I64">
					<dim>1</dim>
				</port>
			</output>
		</layer>
		<layer id="34" name="__module.time_proj/aten::slice/Unsqueeze_2" type="Const" version="opset1">
			<data element_type="i32" shape="1" offset="1868844" size="4" />
			<rt_info>
				<attribute name="precise" version="0" />
			</rt_info>
			<output>
				<port id="0" precision="I32">
					<dim>1</dim>
				</port>
			</output>
		</layer>
		<layer id="35" name="__module.time_proj/aten::slice/Slice" type="StridedSlice" version="opset1">
			<data begin_mask="0" end_mask="0" new_axis_mask="" shrink_axis_mask="" ellipsis_mask="" />
			<input>
				<port id="0" precision="FP64">
					<dim>2</dim>
				</port>
				<port id="1" precision="I32">
					<dim>1</dim>
				</port>
				<port id="2" precision="I64">
					<dim>1</dim>
				</port>
				<port id="3" precision="I32">
					<dim>1</dim>
				</port>
			</input>
			<output>
				<port id="4" precision="FP64" names="93">
					<dim>2</dim>
				</port>
			</output>
		</layer>
		<layer id="36" name="79" type="Const" version="opset1">
			<data element_type="i32" shape="" offset="1868844" size="4" />
			<output>
				<port id="0" precision="I32" names="79" />
			</output>
		</layer>
		<layer id="37" name="__module.time_proj/aten::unsqueeze/Unsqueeze" type="Unsqueeze" version="opset1">
			<input>
				<port id="0" precision="FP64">
					<dim>2</dim>
				</port>
				<port id="1" precision="I32" />
			</input>
			<output>
				<port id="2" precision="FP64" names="94">
					<dim>2</dim>
					<dim>1</dim>
				</port>
			</output>
		</layer>
		<layer id="38" name="__module.time_proj/aten::to/Convert" type="Convert" version="opset1">
			<data destination_type="f32" />
			<input>
				<port id="0" precision="FP64">
					<dim>2</dim>
					<dim>1</dim>
				</port>
			</input>
			<output>
				<port id="1" precision="FP32" names="95">
					<dim>2</dim>
					<dim>1</dim>
				</port>
			</output>
		</layer>
		<layer id="39" name="__module.time_proj/aten::slice/Slice_1_compressed" type="Const" version="opset1">
			<data element_type="f16" shape="1, 160" offset="1868848" size="320" />
			<output>
				<port id="0" precision="FP16" names="97">
					<dim>1</dim>
					<dim>160</dim>
				</port>
			</output>
		</layer>
		<layer id="40" name="__module.time_proj/aten::slice/Slice_1" type="Convert" version="opset1">
			<data destination_type="f32" />
			<rt_info>
				<attribute name="decompression" version="0" />
			</rt_info>
			<input>
				<port id="0" precision="FP16">
					<dim>1</dim>
					<dim>160</dim>
				</port>
			</input>
			<output>
				<port id="1" precision="FP32">
					<dim>1</dim>
					<dim>160</dim>
				</port>
			</output>
		</layer>
		<layer id="41" name="__module.time_proj/aten::mul/Multiply" type="Multiply" version="opset1">
			<data auto_broadcast="numpy" />
			<input>
				<port id="0" precision="FP32">
					<dim>2</dim>
					<dim>1</dim>
				</port>
				<port id="1" precision="FP32">
					<dim>1</dim>
					<dim>160</dim>
				</port>
			</input>
			<output>
				<port id="2" precision="FP32" names="98,99,emb.3,emb.5">
					<dim>2</dim>
					<dim>160</dim>
				</port>
			</output>
		</layer>
		<layer id="42" name="__module.time_proj/aten::sin/Sin" type="Sin" version="opset1">
			<input>
				<port id="0" precision="FP32">
					<dim>2</dim>
					<dim>160</dim>
				</port>
			</input>
			<output>
				<port id="1" precision="FP32" names="100">
					<dim>2</dim>
					<dim>160</dim>
				</port>
			</output>
		</layer>
		<layer id="43" name="__module.time_proj/aten::cos/Cos" type="Cos" version="opset1">
			<input>
				<port id="0" precision="FP32">
					<dim>2</dim>
					<dim>160</dim>
				</port>
			</input>
			<output>
				<port id="1" precision="FP32" names="101">
					<dim>2</dim>
					<dim>160</dim>
				</port>
			</output>
		</layer>
		<layer id="44" name="__module.time_proj/aten::cat/Concat" type="Concat" version="opset1">
			<data axis="-1" />
			<input>
				<port id="0" precision="FP32">
					<dim>2</dim>
					<dim>160</dim>
				</port>
				<port id="1" precision="FP32">
					<dim>2</dim>
					<dim>160</dim>
				</port>
			</input>
			<output>
				<port id="2" precision="FP32" names="103,emb">
					<dim>2</dim>
					<dim>320</dim>
				</port>
			</output>
		</layer>
		<layer id="45" name="__module.time_proj/aten::slice/Unsqueeze_4" type="Const" version="opset1">
			<data element_type="i32" shape="1" offset="1868832" size="4" />
			<rt_info>
				<attribute name="precise" version="0" />
			</rt_info>
			<output>
				<port id="0" precision="I32">
					<dim>1</dim>
				</port>
			</output>
		</layer>
		<layer id="46" name="__module.time_proj/aten::slice/Unsqueeze_5" type="Const" version="opset1">
			<data element_type="i64" shape="1" offset="1868836" size="8" />
			<rt_info>
				<attribute name="precise" version="0" />
			</rt_info>
			<output>
				<port id="0" precision="I64">
					<dim>1</dim>
				</port>
			</output>
		</layer>
		<layer id="47" name="__module.time_proj/aten::slice/Unsqueeze_6" type="Const" version="opset1">
			<data element_type="i32" shape="1" offset="1868844" size="4" />
			<rt_info>
				<attribute name="precise" version="0" />
			</rt_info>
			<output>
				<port id="0" precision="I32">
					<dim>1</dim>
				</port>
			</output>
		</layer>
		<layer id="48" name="__module.time_proj/aten::slice/Slice_2" type="StridedSlice" version="opset1">
			<data begin_mask="0" end_mask="0" new_axis_mask="" shrink_axis_mask="" ellipsis_mask="" />
			<input>
				<port id="0" precision="FP32">
					<dim>2</dim>
					<dim>320</dim>
				</port>
				<port id="1" precision="I32">
					<dim>1</dim>
				</port>
				<port id="2" precision="I64">
					<dim>1</dim>
				</port>
				<port id="3" precision="I32">
					<dim>1</dim>
				</port>
			</input>
			<output>
				<port id="4" precision="FP32" names="104,106">
					<dim>2</dim>
					<dim>320</dim>
				</port>
			</output>
		</layer>
		<layer id="49" name="Constant_136698" type="Const" version="opset1">
			<data element_type="i32" shape="2" offset="1869168" size="8" />
			<rt_info>
				<attribute name="precise" version="0" />
			</rt_info>
			<output>
				<port id="0" precision="I32">
					<dim>2</dim>
				</port>
			</output>
		</layer>
		<layer id="50" name="Constant_136701" type="Const" version="opset1">
			<data element_type="i64" shape="2" offset="1869176" size="16" />
			<rt_info>
				<attribute name="precise" version="0" />
			</rt_info>
			<output>
				<port id="0" precision="I64">
					<dim>2</dim>
				</port>
			</output>
		</layer>
		<layer id="51" name="Constant_136704" type="Const" version="opset1">
			<data element_type="i32" shape="2" offset="1869192" size="8" />
			<rt_info>
				<attribute name="precise" version="0" />
			</rt_info>
			<output>
				<port id="0" precision="I32">
					<dim>2</dim>
				</port>
			</output>
		</layer>
		<layer id="52" name="__module.time_proj/aten::slice/Slice_3" type="StridedSlice" version="opset1">
			<data begin_mask="1, 0" end_mask="1, 0" new_axis_mask="" shrink_axis_mask="" ellipsis_mask="" />
			<input>
				<port id="0" precision="FP32">
					<dim>2</dim>
					<dim>320</dim>
				</port>
				<port id="1" precision="I32">
					<dim>2</dim>
				</port>
				<port id="2" precision="I64">
					<dim>2</dim>
				</port>
				<port id="3" precision="I32">
					<dim>2</dim>
				</port>
			</input>
			<output>
				<port id="4" precision="FP32" names="105">
					<dim>2</dim>
					<dim>160</dim>
				</port>
			</output>
		</layer>
		<layer id="53" name="Constant_136710" type="Const" version="opset1">
			<data element_type="i32" shape="2" offset="1869200" size="8" />
			<rt_info>
				<attribute name="precise" version="0" />
			</rt_info>
			<output>
				<port id="0" precision="I32">
					<dim>2</dim>
				</port>
			</output>
		</layer>
		<layer id="54" name="Constant_136713" type="Const" version="opset1">
			<data element_type="i32" shape="2" offset="1869168" size="8" />
			<rt_info>
				<attribute name="precise" version="0" />
			</rt_info>
			<output>
				<port id="0" precision="I32">
					<dim>2</dim>
				</port>
			</output>
		</layer>
		<layer id="55" name="Constant_136716" type="Const" version="opset1">
			<data element_type="i32" shape="2" offset="1869192" size="8" />
			<rt_info>
				<attribute name="precise" version="0" />
			</rt_info>
			<output>
				<port id="0" precision="I32">
					<dim>2</dim>
				</port>
			</output>
		</layer>
		<layer id="56" name="__module.time_proj/aten::slice/Slice_5" type="StridedSlice" version="opset1">
			<data begin_mask="1, 0" end_mask="1, 0" new_axis_mask="" shrink_axis_mask="" ellipsis_mask="" />
			<input>
				<port id="0" precision="FP32">
					<dim>2</dim>
					<dim>320</dim>
				</port>
				<port id="1" precision="I32">
					<dim>2</dim>
				</port>
				<port id="2" precision="I32">
					<dim>2</dim>
				</port>
				<port id="3" precision="I32">
					<dim>2</dim>
				</port>
			</input>
			<output>
				<port id="4" precision="FP32" names="107">
					<dim>2</dim>
					<dim>160</dim>
				</port>
			</output>
		</layer>
		<layer id="57" name="__module.time_proj/aten::cat/Concat_1" type="Concat" version="opset1">
			<data axis="-1" />
			<input>
				<port id="0" precision="FP32">
					<dim>2</dim>
					<dim>160</dim>
				</port>
				<port id="1" precision="FP32">
					<dim>2</dim>
					<dim>160</dim>
				</port>
			</input>
			<output>
				<port id="2" precision="FP32" names="109,49,input.1,t_emb">
					<dim>2</dim>
					<dim>320</dim>
				</port>
			</output>
		</layer>
		<layer id="58" name="Constant_33393_compressed" type="Const" version="opset1">
			<data element_type="f16" shape="1280, 320" offset="1869208" size="819200" />
			<output>
				<port id="0" precision="FP16" names="113,weight.223">
					<dim>1280</dim>
					<dim>320</dim>
				</port>
			</output>
		</layer>
		<layer id="59" name="Constant_33393" type="Convert" version="opset1">
			<data destination_type="f32" />
			<rt_info>
				<attribute name="decompression" version="0" />
			</rt_info>
			<input>
				<port id="0" precision="FP16">
					<dim>1280</dim>
					<dim>320</dim>
				</port>
			</input>
			<output>
				<port id="1" precision="FP32">
					<dim>1280</dim>
					<dim>320</dim>
				</port>
			</output>
		</layer>
		<layer id="60" name="__module.time_embedding.linear_1/aten::linear/MatMul" type="MatMul" version="opset1">
			<data transpose_a="false" transpose_b="true" />
			<input>
				<port id="0" precision="FP32">
					<dim>2</dim>
					<dim>320</dim>
				</port>
				<port id="1" precision="FP32">
					<dim>1280</dim>
					<dim>320</dim>
				</port>
			</input>
			<output>
				<port id="2" precision="FP32">
					<dim>2</dim>
					<dim>1280</dim>
				</port>
			</output>
		</layer>
		<layer id="61" name="Constant_142568_compressed" type="Const" version="opset1">
			<data element_type="f16" shape="1, 1280" offset="2688408" size="2560" />
			<output>
				<port id="0" precision="FP16">
					<dim>1</dim>
					<dim>1280</dim>
				</port>
			</output>
		</layer>
		<layer id="62" name="Constant_142568" type="Convert" version="opset1">
			<data destination_type="f32" />
			<rt_info>
				<attribute name="decompression" version="0" />
			</rt_info>
			<input>
				<port id="0" precision="FP16">
					<dim>1</dim>
					<dim>1280</dim>
				</port>
			</input>
			<output>
				<port id="1" precision="FP32">
					<dim>1</dim>
					<dim>1280</dim>
				</port>
			</output>
		</layer>
		<layer id="63" name="__module.time_embedding.linear_1/aten::linear/Add" type="Add" version="opset1">
			<data auto_broadcast="numpy" />
			<input>
				<port id="0" precision="FP32">
					<dim>2</dim>
					<dim>1280</dim>
				</port>
				<port id="1" precision="FP32">
					<dim>1</dim>
					<dim>1280</dim>
				</port>
			</input>
			<output>
				<port id="2" precision="FP32" names="114,input.3">
					<dim>2</dim>
					<dim>1280</dim>
				</port>
			</output>
		</layer>
		<layer id="64" name="__module.conv_act/aten::silu/Swish_1" type="Swish" version="opset4">
			<input>
				<port id="0" precision="FP32">
					<dim>2</dim>
					<dim>1280</dim>
				</port>
			</input>
			<output>
				<port id="1" precision="FP32" names="115,input.5">
					<dim>2</dim>
					<dim>1280</dim>
				</port>
			</output>
		</layer>
		<layer id="65" name="Constant_33400_compressed" type="Const" version="opset1">
			<data element_type="f16" shape="1280, 1280" offset="2690968" size="3276800" />
			<output>
				<port id="0" precision="FP16" names="117,weight.225">
					<dim>1280</dim>
					<dim>1280</dim>
				</port>
			</output>
		</layer>
		<layer id="66" name="Constant_33400" type="Convert" version="opset1">
			<data destination_type="f32" />
			<rt_info>
				<attribute name="decompression" version="0" />
			</rt_info>
			<input>
				<port id="0" precision="FP16">
					<dim>1280</dim>
					<dim>1280</dim>
				</port>
			</input>
			<output>
				<port id="1" precision="FP32">
					<dim>1280</dim>
					<dim>1280</dim>
				</port>
			</output>
		</layer>
		<layer id="67" name="__module.time_embedding.linear_2/aten::linear/MatMul" type="MatMul" version="opset1">
			<data transpose_a="false" transpose_b="true" />
			<input>
				<port id="0" precision="FP32">
					<dim>2</dim>
					<dim>1280</dim>
				</port>
				<port id="1" precision="FP32">
					<dim>1280</dim>
					<dim>1280</dim>
				</port>
			</input>
			<output>
				<port id="2" precision="FP32">
					<dim>2</dim>
					<dim>1280</dim>
				</port>
			</output>
		</layer>
		<layer id="68" name="Constant_142569_compressed" type="Const" version="opset1">
			<data element_type="f16" shape="1, 1280" offset="5967768" size="2560" />
			<output>
				<port id="0" precision="FP16">
					<dim>1</dim>
					<dim>1280</dim>
				</port>
			</output>
		</layer>
		<layer id="69" name="Constant_142569" type="Convert" version="opset1">
			<data destination_type="f32" />
			<rt_info>
				<attribute name="decompression" version="0" />
			</rt_info>
			<input>
				<port id="0" precision="FP16">
					<dim>1</dim>
					<dim>1280</dim>
				</port>
			</input>
			<output>
				<port id="1" precision="FP32">
					<dim>1</dim>
					<dim>1280</dim>
				</port>
			</output>
		</layer>
		<layer id="70" name="__module.time_embedding.linear_2/aten::linear/Add" type="Add" version="opset1">
			<data auto_broadcast="numpy" />
			<input>
				<port id="0" precision="FP32">
					<dim>2</dim>
					<dim>1280</dim>
				</port>
				<port id="1" precision="FP32">
					<dim>1</dim>
					<dim>1280</dim>
				</port>
			</input>
			<output>
				<port id="2" precision="FP32" names="118,input.11">
					<dim>2</dim>
					<dim>1280</dim>
				</port>
			</output>
		</layer>
		<layer id="71" name="__module.conv_act/aten::silu/Swish_2" type="Swish" version="opset4">
			<input>
				<port id="0" precision="FP32">
					<dim>2</dim>
					<dim>1280</dim>
				</port>
			</input>
			<output>
				<port id="1" precision="FP32" names="176,input.13">
					<dim>2</dim>
					<dim>1280</dim>
				</port>
			</output>
		</layer>
		<layer id="72" name="Constant_33562_compressed" type="Const" version="opset1">
			<data element_type="f16" shape="320, 1280" offset="5970328" size="819200" />
			<output>
				<port id="0" precision="FP16" names="178,weight.233">
					<dim>320</dim>
					<dim>1280</dim>
				</port>
			</output>
		</layer>
		<layer id="73" name="Constant_33562" type="Convert" version="opset1">
			<data destination_type="f32" />
			<rt_info>
				<attribute name="decompression" version="0" />
			</rt_info>
			<input>
				<port id="0" precision="FP16">
					<dim>320</dim>
					<dim>1280</dim>
				</port>
			</input>
			<output>
				<port id="1" precision="FP32">
					<dim>320</dim>
					<dim>1280</dim>
				</port>
			</output>
		</layer>
		<layer id="74" name="__module.down_blocks.0.resnets.0.time_emb_proj/aten::linear/MatMul" type="MatMul" version="opset1">
			<data transpose_a="false" transpose_b="true" />
			<input>
				<port id="0" precision="FP32">
					<dim>2</dim>
					<dim>1280</dim>
				</port>
				<port id="1" precision="FP32">
					<dim>320</dim>
					<dim>1280</dim>
				</port>
			</input>
			<output>
				<port id="2" precision="FP32">
					<dim>2</dim>
					<dim>320</dim>
				</port>
			</output>
		</layer>
		<layer id="75" name="Constant_142570_compressed" type="Const" version="opset1">
			<data element_type="f16" shape="1, 320" offset="6789528" size="640" />
			<output>
				<port id="0" precision="FP16">
					<dim>1</dim>
					<dim>320</dim>
				</port>
			</output>
		</layer>
		<layer id="76" name="Constant_142570" type="Convert" version="opset1">
			<data destination_type="f32" />
			<rt_info>
				<attribute name="decompression" version="0" />
			</rt_info>
			<input>
				<port id="0" precision="FP16">
					<dim>1</dim>
					<dim>320</dim>
				</port>
			</input>
			<output>
				<port id="1" precision="FP32">
					<dim>1</dim>
					<dim>320</dim>
				</port>
			</output>
		</layer>
		<layer id="77" name="__module.down_blocks.0.resnets.0.time_emb_proj/aten::linear/Add" type="Add" version="opset1">
			<data auto_broadcast="numpy" />
			<input>
				<port id="0" precision="FP32">
					<dim>2</dim>
					<dim>320</dim>
				</port>
				<port id="1" precision="FP32">
					<dim>1</dim>
					<dim>320</dim>
				</port>
			</input>
			<output>
				<port id="2" precision="FP32" names="179">
					<dim>2</dim>
					<dim>320</dim>
				</port>
			</output>
		</layer>
		<layer id="78" name="__module.down_blocks.0.resnets.0/aten::slice/Unsqueeze" type="Const" version="opset1">
			<data element_type="i32" shape="1" offset="1868832" size="4" />
			<rt_info>
				<attribute name="precise" version="0" />
			</rt_info>
			<output>
				<port id="0" precision="I32">
					<dim>1</dim>
				</port>
			</output>
		</layer>
		<layer id="79" name="__module.down_blocks.0.resnets.0/aten::slice/Unsqueeze_1" type="Const" version="opset1">
			<data element_type="i64" shape="1" offset="1868836" size="8" />
			<rt_info>
				<attribute name="precise" version="0" />
			</rt_info>
			<output>
				<port id="0" precision="I64">
					<dim>1</dim>
				</port>
			</output>
		</layer>
		<layer id="80" name="__module.down_blocks.0.resnets.0/aten::slice/Unsqueeze_2" type="Const" version="opset1">
			<data element_type="i32" shape="1" offset="1868844" size="4" />
			<rt_info>
				<attribute name="precise" version="0" />
			</rt_info>
			<output>
				<port id="0" precision="I32">
					<dim>1</dim>
				</port>
			</output>
		</layer>
		<layer id="81" name="__module.down_blocks.0.resnets.0/aten::slice/Slice" type="StridedSlice" version="opset1">
			<data begin_mask="0" end_mask="0" new_axis_mask="" shrink_axis_mask="" ellipsis_mask="" />
			<input>
				<port id="0" precision="FP32">
					<dim>2</dim>
					<dim>320</dim>
				</port>
				<port id="1" precision="I32">
					<dim>1</dim>
				</port>
				<port id="2" precision="I64">
					<dim>1</dim>
				</port>
				<port id="3" precision="I32">
					<dim>1</dim>
				</port>
			</input>
			<output>
				<port id="4" precision="FP32" names="180">
					<dim>2</dim>
					<dim>320</dim>
				</port>
			</output>
		</layer>
		<layer id="82" name="Constant_136723" type="Const" version="opset1">
			<data element_type="i32" shape="2" offset="1869200" size="8" />
			<rt_info>
				<attribute name="precise" version="0" />
			</rt_info>
			<output>
				<port id="0" precision="I32">
					<dim>2</dim>
				</port>
			</output>
		</layer>
		<layer id="83" name="Constant_136726" type="Const" version="opset1">
			<data element_type="i64" shape="2" offset="1869176" size="16" />
			<rt_info>
				<attribute name="precise" version="0" />
			</rt_info>
			<output>
				<port id="0" precision="I64">
					<dim>2</dim>
				</port>
			</output>
		</layer>
		<layer id="84" name="Constant_136729" type="Const" version="opset1">
			<data element_type="i32" shape="2" offset="1869192" size="8" />
			<rt_info>
				<attribute name="precise" version="0" />
			</rt_info>
			<output>
				<port id="0" precision="I32">
					<dim>2</dim>
				</port>
			</output>
		</layer>
		<layer id="85" name="__module.down_blocks.0.resnets.0/aten::slice/Slice_1" type="StridedSlice" version="opset1">
			<data begin_mask="1, 0" end_mask="1, 0" new_axis_mask="" shrink_axis_mask="" ellipsis_mask="" />
			<input>
				<port id="0" precision="FP32">
					<dim>2</dim>
					<dim>320</dim>
				</port>
				<port id="1" precision="I32">
					<dim>2</dim>
				</port>
				<port id="2" precision="I64">
					<dim>2</dim>
				</port>
				<port id="3" precision="I32">
					<dim>2</dim>
				</port>
			</input>
			<output>
				<port id="4" precision="FP32" names="181">
					<dim>2</dim>
					<dim>320</dim>
				</port>
			</output>
		</layer>
		<layer id="86" name="145" type="Const" version="opset1">
			<data element_type="i32" shape="" offset="23692" size="4" />
			<rt_info>
				<attribute name="precise" version="0" />
			</rt_info>
			<output>
				<port id="0" precision="I32" names="145" />
			</output>
		</layer>
		<layer id="87" name="__module.down_blocks.0.resnets.0/aten::unsqueeze/Unsqueeze" type="Unsqueeze" version="opset1">
			<input>
				<port id="0" precision="FP32">
					<dim>2</dim>
					<dim>320</dim>
				</port>
				<port id="1" precision="I32" />
			</input>
			<output>
				<port id="2" precision="FP32" names="182">
					<dim>2</dim>
					<dim>320</dim>
					<dim>1</dim>
				</port>
			</output>
		</layer>
		<layer id="88" name="146" type="Const" version="opset1">
			<data element_type="i32" shape="" offset="6790168" size="4" />
			<output>
				<port id="0" precision="I32" names="146" />
			</output>
		</layer>
		<layer id="89" name="__module.down_blocks.0.resnets.0/aten::unsqueeze/Unsqueeze_1" type="Unsqueeze" version="opset1">
			<input>
				<port id="0" precision="FP32">
					<dim>2</dim>
					<dim>320</dim>
					<dim>1</dim>
				</port>
				<port id="1" precision="I32" />
			</input>
			<output>
				<port id="2" precision="FP32" names="183,temb.1">
					<dim>2</dim>
					<dim>320</dim>
					<dim>1</dim>
					<dim>1</dim>
				</port>
			</output>
		</layer>
		<layer id="90" name="__module.down_blocks.0.resnets.0/aten::add/Add" type="Add" version="opset1">
			<data auto_broadcast="numpy" />
			<input>
				<port id="0" precision="FP32">
					<dim>2</dim>
					<dim>320</dim>
					<dim>64</dim>
					<dim>64</dim>
				</port>
				<port id="1" precision="FP32">
					<dim>2</dim>
					<dim>320</dim>
					<dim>1</dim>
					<dim>1</dim>
				</port>
			</input>
			<output>
				<port id="2" precision="FP32" names="184,input.15">
					<dim>2</dim>
					<dim>320</dim>
					<dim>64</dim>
					<dim>64</dim>
				</port>
			</output>
		</layer>
		<layer id="91" name="__module.down_blocks.0.resnets.0.norm2/aten::group_norm/Constant" type="Const" version="opset1">
			<data element_type="i32" shape="3" offset="23680" size="12" />
			<rt_info>
				<attribute name="precise" version="0" />
			</rt_info>
			<output>
				<port id="0" precision="I32">
					<dim>3</dim>
				</port>
			</output>
		</layer>
		<layer id="92" name="__module.down_blocks.0.resnets.0.norm2/aten::group_norm/Reshape" type="Reshape" version="opset1">
			<data special_zero="true" />
			<input>
				<port id="0" precision="FP32">
					<dim>2</dim>
					<dim>320</dim>
					<dim>64</dim>
					<dim>64</dim>
				</port>
				<port id="1" precision="I32">
					<dim>3</dim>
				</port>
			</input>
			<output>
				<port id="2" precision="FP32">
					<dim>2</dim>
					<dim>32</dim>
					<dim>40960</dim>
				</port>
			</output>
		</layer>
		<layer id="93" name="__module.down_blocks.0.resnets.0.norm2/aten::group_norm/Constant_1" type="Const" version="opset1">
			<data element_type="i32" shape="1" offset="23692" size="4" />
			<output>
				<port id="0" precision="I32">
					<dim>1</dim>
				</port>
			</output>
		</layer>
		<layer id="94" name="__module.down_blocks.0.resnets.0.norm2/aten::group_norm/MVN" type="MVN" version="opset6">
			<data eps="9.9999997473787516e-06" normalize_variance="true" eps_mode="INSIDE_SQRT" />
			<input>
				<port id="0" precision="FP32">
					<dim>2</dim>
					<dim>32</dim>
					<dim>40960</dim>
				</port>
				<port id="1" precision="I32">
					<dim>1</dim>
				</port>
			</input>
			<output>
				<port id="2" precision="FP32">
					<dim>2</dim>
					<dim>32</dim>
					<dim>40960</dim>
				</port>
			</output>
		</layer>
		<layer id="95" name="__module.down_blocks.0.resnets.0.norm2/aten::group_norm/ShapeOf" type="ShapeOf" version="opset3">
			<data output_type="i32" />
			<input>
				<port id="0" precision="FP32">
					<dim>2</dim>
					<dim>320</dim>
					<dim>64</dim>
					<dim>64</dim>
				</port>
			</input>
			<output>
				<port id="1" precision="I32">
					<dim>4</dim>
				</port>
			</output>
		</layer>
		<layer id="96" name="__module.down_blocks.0.resnets.0.norm2/aten::group_norm/Reshape_1" type="Reshape" version="opset1">
			<data special_zero="true" />
			<input>
				<port id="0" precision="FP32">
					<dim>2</dim>
					<dim>32</dim>
					<dim>40960</dim>
				</port>
				<port id="1" precision="I32">
					<dim>4</dim>
				</port>
			</input>
			<output>
				<port id="2" precision="FP32">
					<dim>2</dim>
					<dim>320</dim>
					<dim>64</dim>
					<dim>64</dim>
				</port>
			</output>
		</layer>
		<layer id="97" name="Constant_142571_compressed" type="Const" version="opset1">
			<data element_type="f16" shape="1, 320, 1, 1" offset="6790172" size="640" />
			<output>
				<port id="0" precision="FP16">
					<dim>1</dim>
					<dim>320</dim>
					<dim>1</dim>
					<dim>1</dim>
				</port>
			</output>
		</layer>
		<layer id="98" name="Constant_142571" type="Convert" version="opset1">
			<data destination_type="f32" />
			<rt_info>
				<attribute name="decompression" version="0" />
			</rt_info>
			<input>
				<port id="0" precision="FP16">
					<dim>1</dim>
					<dim>320</dim>
					<dim>1</dim>
					<dim>1</dim>
				</port>
			</input>
			<output>
				<port id="1" precision="FP32">
					<dim>1</dim>
					<dim>320</dim>
					<dim>1</dim>
					<dim>1</dim>
				</port>
			</output>
		</layer>
		<layer id="99" name="__module.down_blocks.0.resnets.0.norm2/aten::group_norm/Multiply" type="Multiply" version="opset1">
			<data auto_broadcast="numpy" />
			<input>
				<port id="0" precision="FP32">
					<dim>2</dim>
					<dim>320</dim>
					<dim>64</dim>
					<dim>64</dim>
				</port>
				<port id="1" precision="FP32">
					<dim>1</dim>
					<dim>320</dim>
					<dim>1</dim>
					<dim>1</dim>
				</port>
			</input>
			<output>
				<port id="2" precision="FP32">
					<dim>2</dim>
					<dim>320</dim>
					<dim>64</dim>
					<dim>64</dim>
				</port>
			</output>
		</layer>
		<layer id="100" name="Constant_142572_compressed" type="Const" version="opset1">
			<data element_type="f16" shape="1, 320, 1, 1" offset="6790812" size="640" />
			<output>
				<port id="0" precision="FP16">
					<dim>1</dim>
					<dim>320</dim>
					<dim>1</dim>
					<dim>1</dim>
				</port>
			</output>
		</layer>
		<layer id="101" name="Constant_142572" type="Convert" version="opset1">
			<data destination_type="f32" />
			<rt_info>
				<attribute name="decompression" version="0" />
			</rt_info>
			<input>
				<port id="0" precision="FP16">
					<dim>1</dim>
					<dim>320</dim>
					<dim>1</dim>
					<dim>1</dim>
				</port>
			</input>
			<output>
				<port id="1" precision="FP32">
					<dim>1</dim>
					<dim>320</dim>
					<dim>1</dim>
					<dim>1</dim>
				</port>
			</output>
		</layer>
		<layer id="102" name="__module.down_blocks.0.resnets.0.norm2/aten::group_norm/Add" type="Add" version="opset1">
			<data auto_broadcast="numpy" />
			<input>
				<port id="0" precision="FP32">
					<dim>2</dim>
					<dim>320</dim>
					<dim>64</dim>
					<dim>64</dim>
				</port>
				<port id="1" precision="FP32">
					<dim>1</dim>
					<dim>320</dim>
					<dim>1</dim>
					<dim>1</dim>
				</port>
			</input>
			<output>
				<port id="2" precision="FP32" names="187,input.17">
					<dim>2</dim>
					<dim>320</dim>
					<dim>64</dim>
					<dim>64</dim>
				</port>
			</output>
		</layer>
		<layer id="103" name="__module.conv_act/aten::silu/Swish_3" type="Swish" version="opset4">
			<input>
				<port id="0" precision="FP32">
					<dim>2</dim>
					<dim>320</dim>
					<dim>64</dim>
					<dim>64</dim>
				</port>
			</input>
			<output>
				<port id="1" precision="FP32" names="188,input.19">
					<dim>2</dim>
					<dim>320</dim>
					<dim>64</dim>
					<dim>64</dim>
				</port>
			</output>
		</layer>
		<layer id="104" name="Constant_33780_compressed" type="Const" version="opset1">
			<data element_type="f16" shape="320, 320, 3, 3" offset="6791452" size="1843200" />
			<output>
				<port id="0" precision="FP16" names="191,weight.237">
					<dim>320</dim>
					<dim>320</dim>
					<dim>3</dim>
					<dim>3</dim>
				</port>
			</output>
		</layer>
		<layer id="105" name="Constant_33780" type="Convert" version="opset1">
			<data destination_type="f32" />
			<rt_info>
				<attribute name="decompression" version="0" />
			</rt_info>
			<input>
				<port id="0" precision="FP16">
					<dim>320</dim>
					<dim>320</dim>
					<dim>3</dim>
					<dim>3</dim>
				</port>
			</input>
			<output>
				<port id="1" precision="FP32">
					<dim>320</dim>
					<dim>320</dim>
					<dim>3</dim>
					<dim>3</dim>
				</port>
			</output>
		</layer>
		<layer id="106" name="__module.down_blocks.0.resnets.0.conv2/aten::_convolution/Convolution" type="Convolution" version="opset1">
			<data strides="1, 1" dilations="1, 1" pads_begin="1, 1" pads_end="1, 1" auto_pad="explicit" />
			<input>
				<port id="0" precision="FP32">
					<dim>2</dim>
					<dim>320</dim>
					<dim>64</dim>
					<dim>64</dim>
				</port>
				<port id="1" precision="FP32">
					<dim>320</dim>
					<dim>320</dim>
					<dim>3</dim>
					<dim>3</dim>
				</port>
			</input>
			<output>
				<port id="2" precision="FP32">
					<dim>2</dim>
					<dim>320</dim>
					<dim>64</dim>
					<dim>64</dim>
				</port>
			</output>
		</layer>
		<layer id="107" name="__module.down_blocks.0.resnets.0.conv2/aten::_convolution/Reshape_compressed" type="Const" version="opset1">
			<data element_type="f16" shape="1, 320, 1, 1" offset="8634652" size="640" />
			<output>
				<port id="0" precision="FP16">
					<dim>1</dim>
					<dim>320</dim>
					<dim>1</dim>
					<dim>1</dim>
				</port>
			</output>
		</layer>
		<layer id="108" name="__module.down_blocks.0.resnets.0.conv2/aten::_convolution/Reshape" type="Convert" version="opset1">
			<data destination_type="f32" />
			<rt_info>
				<attribute name="decompression" version="0" />
			</rt_info>
			<input>
				<port id="0" precision="FP16">
					<dim>1</dim>
					<dim>320</dim>
					<dim>1</dim>
					<dim>1</dim>
				</port>
			</input>
			<output>
				<port id="1" precision="FP32">
					<dim>1</dim>
					<dim>320</dim>
					<dim>1</dim>
					<dim>1</dim>
				</port>
			</output>
		</layer>
		<layer id="109" name="__module.down_blocks.0.resnets.0.conv2/aten::_convolution/Add" type="Add" version="opset1">
			<data auto_broadcast="numpy" />
			<input>
				<port id="0" precision="FP32">
					<dim>2</dim>
					<dim>320</dim>
					<dim>64</dim>
					<dim>64</dim>
				</port>
				<port id="1" precision="FP32">
					<dim>1</dim>
					<dim>320</dim>
					<dim>1</dim>
					<dim>1</dim>
				</port>
			</input>
			<output>
				<port id="2" precision="FP32" names="196,hidden_states.7">
					<dim>2</dim>
					<dim>320</dim>
					<dim>64</dim>
					<dim>64</dim>
				</port>
			</output>
		</layer>
		<layer id="110" name="__module.down_blocks.0.resnets.0/aten::add/Add_1" type="Add" version="opset1">
			<data auto_broadcast="numpy" />
			<input>
				<port id="0" precision="FP32">
					<dim>2</dim>
					<dim>320</dim>
					<dim>64</dim>
					<dim>64</dim>
				</port>
				<port id="1" precision="FP32">
					<dim>2</dim>
					<dim>320</dim>
					<dim>64</dim>
					<dim>64</dim>
				</port>
			</input>
			<output>
				<port id="2" precision="FP32" names="197,198,hidden_states.9">
					<dim>2</dim>
					<dim>320</dim>
					<dim>64</dim>
					<dim>64</dim>
				</port>
			</output>
		</layer>
		<layer id="111" name="__module.down_blocks.0.attentions.0.norm/aten::group_norm/Constant" type="Const" version="opset1">
			<data element_type="i32" shape="3" offset="23680" size="12" />
			<rt_info>
				<attribute name="precise" version="0" />
			</rt_info>
			<output>
				<port id="0" precision="I32">
					<dim>3</dim>
				</port>
			</output>
		</layer>
		<layer id="112" name="__module.down_blocks.0.attentions.0.norm/aten::group_norm/Reshape" type="Reshape" version="opset1">
			<data special_zero="true" />
			<input>
				<port id="0" precision="FP32">
					<dim>2</dim>
					<dim>320</dim>
					<dim>64</dim>
					<dim>64</dim>
				</port>
				<port id="1" precision="I32">
					<dim>3</dim>
				</port>
			</input>
			<output>
				<port id="2" precision="FP32">
					<dim>2</dim>
					<dim>32</dim>
					<dim>40960</dim>
				</port>
			</output>
		</layer>
		<layer id="113" name="__module.down_blocks.0.attentions.0.norm/aten::group_norm/Constant_1" type="Const" version="opset1">
			<data element_type="i32" shape="1" offset="23692" size="4" />
			<output>
				<port id="0" precision="I32">
					<dim>1</dim>
				</port>
			</output>
		</layer>
		<layer id="114" name="__module.down_blocks.0.attentions.0.norm/aten::group_norm/MVN" type="MVN" version="opset6">
			<data eps="9.9999999747524271e-07" normalize_variance="true" eps_mode="INSIDE_SQRT" />
			<input>
				<port id="0" precision="FP32">
					<dim>2</dim>
					<dim>32</dim>
					<dim>40960</dim>
				</port>
				<port id="1" precision="I32">
					<dim>1</dim>
				</port>
			</input>
			<output>
				<port id="2" precision="FP32">
					<dim>2</dim>
					<dim>32</dim>
					<dim>40960</dim>
				</port>
			</output>
		</layer>
		<layer id="115" name="__module.down_blocks.0.attentions.0.norm/aten::group_norm/ShapeOf" type="Const" version="opset1">
			<data element_type="i32" shape="4" offset="23696" size="16" />
			<rt_info>
				<attribute name="precise" version="0" />
			</rt_info>
			<output>
				<port id="0" precision="I32">
					<dim>4</dim>
				</port>
			</output>
		</layer>
		<layer id="116" name="__module.down_blocks.0.attentions.0.norm/aten::group_norm/Reshape_1" type="Reshape" version="opset1">
			<data special_zero="true" />
			<input>
				<port id="0" precision="FP32">
					<dim>2</dim>
					<dim>32</dim>
					<dim>40960</dim>
				</port>
				<port id="1" precision="I32">
					<dim>4</dim>
				</port>
			</input>
			<output>
				<port id="2" precision="FP32">
					<dim>2</dim>
					<dim>320</dim>
					<dim>64</dim>
					<dim>64</dim>
				</port>
			</output>
		</layer>
		<layer id="117" name="Constant_142573_compressed" type="Const" version="opset1">
			<data element_type="f16" shape="1, 320, 1, 1" offset="8635292" size="640" />
			<output>
				<port id="0" precision="FP16">
					<dim>1</dim>
					<dim>320</dim>
					<dim>1</dim>
					<dim>1</dim>
				</port>
			</output>
		</layer>
		<layer id="118" name="Constant_142573" type="Convert" version="opset1">
			<data destination_type="f32" />
			<rt_info>
				<attribute name="decompression" version="0" />
			</rt_info>
			<input>
				<port id="0" precision="FP16">
					<dim>1</dim>
					<dim>320</dim>
					<dim>1</dim>
					<dim>1</dim>
				</port>
			</input>
			<output>
				<port id="1" precision="FP32">
					<dim>1</dim>
					<dim>320</dim>
					<dim>1</dim>
					<dim>1</dim>
				</port>
			</output>
		</layer>
		<layer id="119" name="__module.down_blocks.0.attentions.0.norm/aten::group_norm/Multiply" type="Multiply" version="opset1">
			<data auto_broadcast="numpy" />
			<input>
				<port id="0" precision="FP32">
					<dim>2</dim>
					<dim>320</dim>
					<dim>64</dim>
					<dim>64</dim>
				</port>
				<port id="1" precision="FP32">
					<dim>1</dim>
					<dim>320</dim>
					<dim>1</dim>
					<dim>1</dim>
				</port>
			</input>
			<output>
				<port id="2" precision="FP32">
					<dim>2</dim>
					<dim>320</dim>
					<dim>64</dim>
					<dim>64</dim>
				</port>
			</output>
		</layer>
		<layer id="120" name="Constant_142574_compressed" type="Const" version="opset1">
			<data element_type="f16" shape="1, 320, 1, 1" offset="8635932" size="640" />
			<output>
				<port id="0" precision="FP16">
					<dim>1</dim>
					<dim>320</dim>
					<dim>1</dim>
					<dim>1</dim>
				</port>
			</output>
		</layer>
		<layer id="121" name="Constant_142574" type="Convert" version="opset1">
			<data destination_type="f32" />
			<rt_info>
				<attribute name="decompression" version="0" />
			</rt_info>
			<input>
				<port id="0" precision="FP16">
					<dim>1</dim>
					<dim>320</dim>
					<dim>1</dim>
					<dim>1</dim>
				</port>
			</input>
			<output>
				<port id="1" precision="FP32">
					<dim>1</dim>
					<dim>320</dim>
					<dim>1</dim>
					<dim>1</dim>
				</port>
			</output>
		</layer>
		<layer id="122" name="__module.down_blocks.0.attentions.0.norm/aten::group_norm/Add" type="Add" version="opset1">
			<data auto_broadcast="numpy" />
			<input>
				<port id="0" precision="FP32">
					<dim>2</dim>
					<dim>320</dim>
					<dim>64</dim>
					<dim>64</dim>
				</port>
				<port id="1" precision="FP32">
					<dim>1</dim>
					<dim>320</dim>
					<dim>1</dim>
					<dim>1</dim>
				</port>
			</input>
			<output>
				<port id="2" precision="FP32" names="211,hidden_states.11">
					<dim>2</dim>
					<dim>320</dim>
					<dim>64</dim>
					<dim>64</dim>
				</port>
			</output>
		</layer>
		<layer id="123" name="Constant_33870_compressed" type="Const" version="opset1">
			<data element_type="f16" shape="320, 320, 1, 1" offset="8636572" size="204800" />
			<output>
				<port id="0" precision="FP16" names="213,weight.241">
					<dim>320</dim>
					<dim>320</dim>
					<dim>1</dim>
					<dim>1</dim>
				</port>
			</output>
		</layer>
		<layer id="124" name="Constant_33870" type="Convert" version="opset1">
			<data destination_type="f32" />
			<rt_info>
				<attribute name="decompression" version="0" />
			</rt_info>
			<input>
				<port id="0" precision="FP16">
					<dim>320</dim>
					<dim>320</dim>
					<dim>1</dim>
					<dim>1</dim>
				</port>
			</input>
			<output>
				<port id="1" precision="FP32">
					<dim>320</dim>
					<dim>320</dim>
					<dim>1</dim>
					<dim>1</dim>
				</port>
			</output>
		</layer>
		<layer id="125" name="__module.down_blocks.0.attentions.0.proj_in/aten::_convolution/Convolution" type="Convolution" version="opset1">
			<data strides="1, 1" dilations="1, 1" pads_begin="0, 0" pads_end="0, 0" auto_pad="explicit" />
			<input>
				<port id="0" precision="FP32">
					<dim>2</dim>
					<dim>320</dim>
					<dim>64</dim>
					<dim>64</dim>
				</port>
				<port id="1" precision="FP32">
					<dim>320</dim>
					<dim>320</dim>
					<dim>1</dim>
					<dim>1</dim>
				</port>
			</input>
			<output>
				<port id="2" precision="FP32">
					<dim>2</dim>
					<dim>320</dim>
					<dim>64</dim>
					<dim>64</dim>
				</port>
			</output>
		</layer>
		<layer id="126" name="__module.down_blocks.0.attentions.0.proj_in/aten::_convolution/Reshape_compressed" type="Const" version="opset1">
			<data element_type="f16" shape="1, 320, 1, 1" offset="8841372" size="640" />
			<output>
				<port id="0" precision="FP16">
					<dim>1</dim>
					<dim>320</dim>
					<dim>1</dim>
					<dim>1</dim>
				</port>
			</output>
		</layer>
		<layer id="127" name="__module.down_blocks.0.attentions.0.proj_in/aten::_convolution/Reshape" type="Convert" version="opset1">
			<data destination_type="f32" />
			<rt_info>
				<attribute name="decompression" version="0" />
			</rt_info>
			<input>
				<port id="0" precision="FP16">
					<dim>1</dim>
					<dim>320</dim>
					<dim>1</dim>
					<dim>1</dim>
				</port>
			</input>
			<output>
				<port id="1" precision="FP32">
					<dim>1</dim>
					<dim>320</dim>
					<dim>1</dim>
					<dim>1</dim>
				</port>
			</output>
		</layer>
		<layer id="128" name="__module.down_blocks.0.attentions.0.proj_in/aten::_convolution/Add" type="Add" version="opset1">
			<data auto_broadcast="numpy" />
			<input>
				<port id="0" precision="FP32">
					<dim>2</dim>
					<dim>320</dim>
					<dim>64</dim>
					<dim>64</dim>
				</port>
				<port id="1" precision="FP32">
					<dim>1</dim>
					<dim>320</dim>
					<dim>1</dim>
					<dim>1</dim>
				</port>
			</input>
			<output>
				<port id="2" precision="FP32" names="218,hidden_states.13">
					<dim>2</dim>
					<dim>320</dim>
					<dim>64</dim>
					<dim>64</dim>
				</port>
			</output>
		</layer>
		<layer id="129" name="Constant_33919" type="Const" version="opset1">
			<data element_type="i32" shape="4" offset="8842012" size="16" />
			<output>
				<port id="0" precision="I32" names="220">
					<dim>4</dim>
				</port>
			</output>
		</layer>
		<layer id="130" name="__module.down_blocks.0.attentions.0/aten::permute/Transpose" type="Transpose" version="opset1">
			<input>
				<port id="0" precision="FP32">
					<dim>2</dim>
					<dim>320</dim>
					<dim>64</dim>
					<dim>64</dim>
				</port>
				<port id="1" precision="I32">
					<dim>4</dim>
				</port>
			</input>
			<output>
				<port id="2" precision="FP32" names="221">
					<dim>2</dim>
					<dim>64</dim>
					<dim>64</dim>
					<dim>320</dim>
				</port>
			</output>
		</layer>
		<layer id="131" name="__module.down_blocks.0.attentions.0/prim::ListConstruct/Concat" type="Const" version="opset1">
			<data element_type="i32" shape="3" offset="8842028" size="12" />
			<rt_info>
				<attribute name="precise" version="0" />
			</rt_info>
			<output>
				<port id="0" precision="I32" names="224">
					<dim>3</dim>
				</port>
			</output>
		</layer>
		<layer id="132" name="__module.down_blocks.0.attentions.0/aten::reshape/Reshape" type="Reshape" version="opset1">
			<data special_zero="false" />
			<input>
				<port id="0" precision="FP32">
					<dim>2</dim>
					<dim>64</dim>
					<dim>64</dim>
					<dim>320</dim>
				</port>
				<port id="1" precision="I32">
					<dim>3</dim>
				</port>
			</input>
			<output>
				<port id="2" precision="FP32" names="225,hidden_states.15">
					<dim>2</dim>
					<dim>4096</dim>
					<dim>320</dim>
				</port>
			</output>
		</layer>
		<layer id="133" name="__module.down_blocks.0.attentions.0.transformer_blocks.0.norm1/aten::layer_norm/Constant" type="Const" version="opset1">
			<data element_type="i32" shape="1" offset="8842040" size="4" />
			<output>
				<port id="0" precision="I32">
					<dim>1</dim>
				</port>
			</output>
		</layer>
		<layer id="134" name="__module.down_blocks.0.attentions.0.transformer_blocks.0.norm1/aten::layer_norm/MVN" type="MVN" version="opset6">
			<data eps="9.9999997473787516e-06" normalize_variance="true" eps_mode="INSIDE_SQRT" />
			<input>
				<port id="0" precision="FP32">
					<dim>2</dim>
					<dim>4096</dim>
					<dim>320</dim>
				</port>
				<port id="1" precision="I32">
					<dim>1</dim>
				</port>
			</input>
			<output>
				<port id="2" precision="FP32">
					<dim>2</dim>
					<dim>4096</dim>
					<dim>320</dim>
				</port>
			</output>
		</layer>
		<layer id="135" name="Constant_142575_compressed" type="Const" version="opset1">
			<data element_type="f16" shape="1, 1, 320" offset="8842044" size="640" />
			<output>
				<port id="0" precision="FP16">
					<dim>1</dim>
					<dim>1</dim>
					<dim>320</dim>
				</port>
			</output>
		</layer>
		<layer id="136" name="Constant_142575" type="Convert" version="opset1">
			<data destination_type="f32" />
			<rt_info>
				<attribute name="decompression" version="0" />
			</rt_info>
			<input>
				<port id="0" precision="FP16">
					<dim>1</dim>
					<dim>1</dim>
					<dim>320</dim>
				</port>
			</input>
			<output>
				<port id="1" precision="FP32">
					<dim>1</dim>
					<dim>1</dim>
					<dim>320</dim>
				</port>
			</output>
		</layer>
		<layer id="137" name="__module.down_blocks.0.attentions.0.transformer_blocks.0.norm1/aten::layer_norm/Multiply" type="Multiply" version="opset1">
			<data auto_broadcast="numpy" />
			<input>
				<port id="0" precision="FP32">
					<dim>2</dim>
					<dim>4096</dim>
					<dim>320</dim>
				</port>
				<port id="1" precision="FP32">
					<dim>1</dim>
					<dim>1</dim>
					<dim>320</dim>
				</port>
			</input>
			<output>
				<port id="2" precision="FP32">
					<dim>2</dim>
					<dim>4096</dim>
					<dim>320</dim>
				</port>
			</output>
		</layer>
		<layer id="138" name="Constant_142576_compressed" type="Const" version="opset1">
			<data element_type="f16" shape="1, 1, 320" offset="8842684" size="640" />
			<output>
				<port id="0" precision="FP16">
					<dim>1</dim>
					<dim>1</dim>
					<dim>320</dim>
				</port>
			</output>
		</layer>
		<layer id="139" name="Constant_142576" type="Convert" version="opset1">
			<data destination_type="f32" />
			<rt_info>
				<attribute name="decompression" version="0" />
			</rt_info>
			<input>
				<port id="0" precision="FP16">
					<dim>1</dim>
					<dim>1</dim>
					<dim>320</dim>
				</port>
			</input>
			<output>
				<port id="1" precision="FP32">
					<dim>1</dim>
					<dim>1</dim>
					<dim>320</dim>
				</port>
			</output>
		</layer>
		<layer id="140" name="__module.down_blocks.0.attentions.0.transformer_blocks.0.norm1/aten::layer_norm/Add" type="Add" version="opset1">
			<data auto_broadcast="numpy" />
			<input>
				<port id="0" precision="FP32">
					<dim>2</dim>
					<dim>4096</dim>
					<dim>320</dim>
				</port>
				<port id="1" precision="FP32">
					<dim>1</dim>
					<dim>1</dim>
					<dim>320</dim>
				</port>
			</input>
			<output>
				<port id="2" precision="FP32" names="235,hidden_states.17">
					<dim>2</dim>
					<dim>4096</dim>
					<dim>320</dim>
				</port>
			</output>
		</layer>
		<layer id="141" name="Constant_33965_compressed" type="Const" version="opset1">
			<data element_type="f16" shape="320, 320" offset="8843324" size="204800" />
			<output>
				<port id="0" precision="FP16" names="242,weight.245">
					<dim>320</dim>
					<dim>320</dim>
				</port>
			</output>
		</layer>
		<layer id="142" name="Constant_33965" type="Convert" version="opset1">
			<data destination_type="f32" />
			<rt_info>
				<attribute name="decompression" version="0" />
			</rt_info>
			<input>
				<port id="0" precision="FP16">
					<dim>320</dim>
					<dim>320</dim>
				</port>
			</input>
			<output>
				<port id="1" precision="FP32">
					<dim>320</dim>
					<dim>320</dim>
				</port>
			</output>
		</layer>
		<layer id="143" name="__module.down_blocks.0.attentions.0.transformer_blocks.0.attn1.to_q/aten::linear/MatMul" type="MatMul" version="opset1">
			<data transpose_a="false" transpose_b="true" />
			<input>
				<port id="0" precision="FP32">
					<dim>2</dim>
					<dim>4096</dim>
					<dim>320</dim>
				</port>
				<port id="1" precision="FP32">
					<dim>320</dim>
					<dim>320</dim>
				</port>
			</input>
			<output>
				<port id="2" precision="FP32" names="243,query.1">
					<dim>2</dim>
					<dim>4096</dim>
					<dim>320</dim>
				</port>
			</output>
		</layer>
		<layer id="144" name="__module.down_blocks.0.attentions.0.transformer_blocks.0.attn1/aten::size/ShapeOf" type="ShapeOf" version="opset3">
			<data output_type="i32" />
			<input>
				<port id="0" precision="FP32">
					<dim>2</dim>
					<dim>4096</dim>
					<dim>320</dim>
				</port>
			</input>
			<output>
				<port id="1" precision="I32">
					<dim>3</dim>
				</port>
			</output>
		</layer>
		<layer id="145" name="Constant_136606" type="Const" version="opset1">
			<data element_type="i32" shape="1" offset="1868832" size="4" />
			<rt_info>
				<attribute name="precise" version="0" />
			</rt_info>
			<output>
				<port id="0" precision="I32">
					<dim>1</dim>
				</port>
			</output>
		</layer>
		<layer id="146" name="__module.down_blocks.0.attentions.0.transformer_blocks.0.attn1/aten::size/Constant" type="Const" version="opset1">
			<data element_type="i32" shape="" offset="1868832" size="4" />
			<rt_info>
				<attribute name="precise" version="0" />
			</rt_info>
			<output>
				<port id="0" precision="I32" />
			</output>
		</layer>
		<layer id="147" name="__module.down_blocks.0.attentions.0.transformer_blocks.0.attn1/aten::size/Gather" type="Gather" version="opset8">
			<data batch_dims="0" />
			<input>
				<port id="0" precision="I32">
					<dim>3</dim>
				</port>
				<port id="1" precision="I32">
					<dim>1</dim>
				</port>
				<port id="2" precision="I32" />
			</input>
			<output>
				<port id="3" precision="I32" names="241">
					<dim>1</dim>
				</port>
			</output>
		</layer>
		<layer id="148" name="__module.down_blocks.0.attentions.0.transformer_blocks.0.attn1/prim::ListConstruct/Reshape_0" type="Const" version="opset1">
			<data element_type="i32" shape="1" offset="8842040" size="4" />
			<rt_info>
				<attribute name="precise" version="0" />
			</rt_info>
			<output>
				<port id="0" precision="I32">
					<dim>1</dim>
				</port>
			</output>
		</layer>
		<layer id="149" name="__module.down_blocks.0.attentions.0.transformer_blocks.0.attn1/prim::ListConstruct/Reshape_1" type="Const" version="opset1">
			<data element_type="i32" shape="1" offset="9048124" size="4" />
			<rt_info>
				<attribute name="precise" version="0" />
			</rt_info>
			<output>
				<port id="0" precision="I32">
					<dim>1</dim>
				</port>
			</output>
		</layer>
		<layer id="150" name="Constant_33968_compressed" type="Const" version="opset1">
			<data element_type="f16" shape="320, 320" offset="9048128" size="204800" />
			<output>
				<port id="0" precision="FP16" names="244,weight.247">
					<dim>320</dim>
					<dim>320</dim>
				</port>
			</output>
		</layer>
		<layer id="151" name="Constant_33968" type="Convert" version="opset1">
			<data destination_type="f32" />
			<rt_info>
				<attribute name="decompression" version="0" />
			</rt_info>
			<input>
				<port id="0" precision="FP16">
					<dim>320</dim>
					<dim>320</dim>
				</port>
			</input>
			<output>
				<port id="1" precision="FP32">
					<dim>320</dim>
					<dim>320</dim>
				</port>
			</output>
		</layer>
		<layer id="152" name="__module.down_blocks.0.attentions.0.transformer_blocks.0.attn1.to_k/aten::linear/MatMul" type="MatMul" version="opset1">
			<data transpose_a="false" transpose_b="true" />
			<input>
				<port id="0" precision="FP32">
					<dim>2</dim>
					<dim>4096</dim>
					<dim>320</dim>
				</port>
				<port id="1" precision="FP32">
					<dim>320</dim>
					<dim>320</dim>
				</port>
			</input>
			<output>
				<port id="2" precision="FP32" names="245,key.1">
					<dim>2</dim>
					<dim>4096</dim>
					<dim>320</dim>
				</port>
			</output>
		</layer>
		<layer id="153" name="__module.down_blocks.0.attentions.0.transformer_blocks.0.attn1/aten::size/ShapeOf_1" type="ShapeOf" version="opset3">
			<data output_type="i32" />
			<input>
				<port id="0" precision="FP32">
					<dim>2</dim>
					<dim>4096</dim>
					<dim>320</dim>
				</port>
			</input>
			<output>
				<port id="1" precision="I32">
					<dim>3</dim>
				</port>
			</output>
		</layer>
		<layer id="154" name="__module.down_blocks.0.attentions.0.transformer_blocks.0.attn1/aten::size/Constant_1" type="Const" version="opset1">
			<data element_type="i32" shape="" offset="1868832" size="4" />
			<rt_info>
				<attribute name="precise" version="0" />
			</rt_info>
			<output>
				<port id="0" precision="I32" />
			</output>
		</layer>
		<layer id="155" name="__module.down_blocks.0.attentions.0.transformer_blocks.0.attn1/aten::size/Gather_1" type="Gather" version="opset8">
			<data batch_dims="0" />
			<input>
				<port id="0" precision="I32">
					<dim>3</dim>
				</port>
				<port id="1" precision="I32" />
				<port id="2" precision="I32" />
			</input>
			<output>
				<port id="3" precision="I32" names="248" />
			</output>
		</layer>
		<layer id="156" name="133" type="Const" version="opset1">
			<data element_type="i32" shape="" offset="9048124" size="4" />
			<rt_info>
				<attribute name="precise" version="0" />
			</rt_info>
			<output>
				<port id="0" precision="I32" names="133" />
			</output>
		</layer>
		<layer id="157" name="__module.down_blocks.0.attentions.0.transformer_blocks.0.attn1/aten::floor_divide/Divide" type="Divide" version="opset1">
			<data auto_broadcast="numpy" m_pythondiv="true" />
			<input>
				<port id="0" precision="I32" />
				<port id="1" precision="I32" />
			</input>
			<output>
				<port id="2" precision="I32" />
			</output>
		</layer>
		<layer id="158" name="__module.down_blocks.0.attentions.0.transformer_blocks.0.attn1/aten::floor_divide/Floor" type="Floor" version="opset1">
			<input>
				<port id="0" precision="I32" />
			</input>
			<output>
				<port id="1" precision="I32" names="250,251,252,253,head_dim.1" />
			</output>
		</layer>
		<layer id="159" name="Constant_114547" type="Const" version="opset1">
			<data element_type="i64" shape="1" offset="9252928" size="8" />
			<rt_info>
				<attribute name="precise" version="0" />
			</rt_info>
			<output>
				<port id="0" precision="I64">
					<dim>1</dim>
				</port>
			</output>
		</layer>
		<layer id="160" name="__module.down_blocks.0.attentions.0.transformer_blocks.0.attn1/prim::ListConstruct/Reshape_2" type="Reshape" version="opset1">
			<data special_zero="false" />
			<input>
				<port id="0" precision="I32" />
				<port id="1" precision="I64">
					<dim>1</dim>
				</port>
			</input>
			<output>
				<port id="2" precision="I32">
					<dim>1</dim>
				</port>
			</output>
		</layer>
		<layer id="161" name="__module.down_blocks.0.attentions.0.transformer_blocks.0.attn1/prim::ListConstruct/Concat" type="Concat" version="opset1">
			<data axis="0" />
			<input>
				<port id="0" precision="I32">
					<dim>1</dim>
				</port>
				<port id="1" precision="I32">
					<dim>1</dim>
				</port>
				<port id="2" precision="I32">
					<dim>1</dim>
				</port>
				<port id="3" precision="I32">
					<dim>1</dim>
				</port>
			</input>
			<output>
				<port id="4" precision="I32" names="254,257,260">
					<dim>4</dim>
				</port>
			</output>
		</layer>
		<layer id="162" name="__module.down_blocks.0.attentions.0.transformer_blocks.0.attn1/aten::view/Reshape" type="Reshape" version="opset1">
			<data special_zero="false" />
			<input>
				<port id="0" precision="FP32">
					<dim>2</dim>
					<dim>4096</dim>
					<dim>320</dim>
				</port>
				<port id="1" precision="I32">
					<dim>4</dim>
				</port>
			</input>
			<output>
				<port id="2" precision="FP32" names="255">
					<dim>2</dim>
					<dim>4096</dim>
					<dim>8</dim>
					<dim>40</dim>
				</port>
			</output>
		</layer>
		<layer id="163" name="__module.down_blocks.0.attentions.0.transformer_blocks.0.attn1/aten::transpose/ScatterElementsUpdate" type="Const" version="opset1">
			<data element_type="i32" shape="4" offset="9252936" size="16" />
			<output>
				<port id="0" precision="I32">
					<dim>4</dim>
				</port>
			</output>
		</layer>
		<layer id="164" name="__module.down_blocks.0.attentions.0.transformer_blocks.0.attn1/aten::transpose/Transpose" type="Transpose" version="opset1">
			<input>
				<port id="0" precision="FP32">
					<dim>2</dim>
					<dim>4096</dim>
					<dim>8</dim>
					<dim>40</dim>
				</port>
				<port id="1" precision="I32">
					<dim>4</dim>
				</port>
			</input>
			<output>
				<port id="2" precision="FP32" names="256,query.3">
					<dim>2</dim>
					<dim>8</dim>
					<dim>4096</dim>
					<dim>40</dim>
				</port>
			</output>
		</layer>
		<layer id="165" name="__module.down_blocks.0.attentions.0.transformer_blocks.0.attn1/aten::view/Reshape_1" type="Reshape" version="opset1">
			<data special_zero="false" />
			<input>
				<port id="0" precision="FP32">
					<dim>2</dim>
					<dim>4096</dim>
					<dim>320</dim>
				</port>
				<port id="1" precision="I32">
					<dim>4</dim>
				</port>
			</input>
			<output>
				<port id="2" precision="FP32" names="258">
					<dim>2</dim>
					<dim>4096</dim>
					<dim>8</dim>
					<dim>40</dim>
				</port>
			</output>
		</layer>
		<layer id="166" name="__module.down_blocks.0.attentions.0.transformer_blocks.0.attn1/aten::transpose/ScatterElementsUpdate_1" type="Const" version="opset1">
			<data element_type="i32" shape="4" offset="9252936" size="16" />
			<output>
				<port id="0" precision="I32">
					<dim>4</dim>
				</port>
			</output>
		</layer>
		<layer id="167" name="__module.down_blocks.0.attentions.0.transformer_blocks.0.attn1/aten::transpose/Transpose_1" type="Transpose" version="opset1">
			<input>
				<port id="0" precision="FP32">
					<dim>2</dim>
					<dim>4096</dim>
					<dim>8</dim>
					<dim>40</dim>
				</port>
				<port id="1" precision="I32">
					<dim>4</dim>
				</port>
			</input>
			<output>
				<port id="2" precision="FP32" names="259,key.3">
					<dim>2</dim>
					<dim>8</dim>
					<dim>4096</dim>
					<dim>40</dim>
				</port>
			</output>
		</layer>
		<layer id="168" name="Constant_33971_compressed" type="Const" version="opset1">
			<data element_type="f16" shape="320, 320" offset="9252952" size="204800" />
			<output>
				<port id="0" precision="FP16" names="246,weight.249">
					<dim>320</dim>
					<dim>320</dim>
				</port>
			</output>
		</layer>
		<layer id="169" name="Constant_33971" type="Convert" version="opset1">
			<data destination_type="f32" />
			<rt_info>
				<attribute name="decompression" version="0" />
			</rt_info>
			<input>
				<port id="0" precision="FP16">
					<dim>320</dim>
					<dim>320</dim>
				</port>
			</input>
			<output>
				<port id="1" precision="FP32">
					<dim>320</dim>
					<dim>320</dim>
				</port>
			</output>
		</layer>
		<layer id="170" name="__module.down_blocks.0.attentions.0.transformer_blocks.0.attn1.to_v/aten::linear/MatMul" type="MatMul" version="opset1">
			<data transpose_a="false" transpose_b="true" />
			<input>
				<port id="0" precision="FP32">
					<dim>2</dim>
					<dim>4096</dim>
					<dim>320</dim>
				</port>
				<port id="1" precision="FP32">
					<dim>320</dim>
					<dim>320</dim>
				</port>
			</input>
			<output>
				<port id="2" precision="FP32" names="247,value.1">
					<dim>2</dim>
					<dim>4096</dim>
					<dim>320</dim>
				</port>
			</output>
		</layer>
		<layer id="171" name="__module.down_blocks.0.attentions.0.transformer_blocks.0.attn1/aten::view/Reshape_2" type="Reshape" version="opset1">
			<data special_zero="false" />
			<input>
				<port id="0" precision="FP32">
					<dim>2</dim>
					<dim>4096</dim>
					<dim>320</dim>
				</port>
				<port id="1" precision="I32">
					<dim>4</dim>
				</port>
			</input>
			<output>
				<port id="2" precision="FP32" names="261">
					<dim>2</dim>
					<dim>4096</dim>
					<dim>8</dim>
					<dim>40</dim>
				</port>
			</output>
		</layer>
		<layer id="172" name="__module.down_blocks.0.attentions.0.transformer_blocks.0.attn1/aten::transpose/ScatterElementsUpdate_2" type="Const" version="opset1">
			<data element_type="i32" shape="4" offset="9252936" size="16" />
			<output>
				<port id="0" precision="I32">
					<dim>4</dim>
				</port>
			</output>
		</layer>
		<layer id="173" name="__module.down_blocks.0.attentions.0.transformer_blocks.0.attn1/aten::transpose/Transpose_2" type="Transpose" version="opset1">
			<input>
				<port id="0" precision="FP32">
					<dim>2</dim>
					<dim>4096</dim>
					<dim>8</dim>
					<dim>40</dim>
				</port>
				<port id="1" precision="I32">
					<dim>4</dim>
				</port>
			</input>
			<output>
				<port id="2" precision="FP32" names="262,value.3">
					<dim>2</dim>
					<dim>8</dim>
					<dim>4096</dim>
					<dim>40</dim>
				</port>
			</output>
		</layer>
		<layer id="174" name="__module.down_blocks.0.attentions.0.transformer_blocks.0.attn1/aten::scaled_dot_product_attention/ScaledDotProductAttention" type="ScaledDotProductAttention" version="opset13">
			<data causal="false" />
			<input>
				<port id="0" precision="FP32">
					<dim>2</dim>
					<dim>8</dim>
					<dim>4096</dim>
					<dim>40</dim>
				</port>
				<port id="1" precision="FP32">
					<dim>2</dim>
					<dim>8</dim>
					<dim>4096</dim>
					<dim>40</dim>
				</port>
				<port id="2" precision="FP32">
					<dim>2</dim>
					<dim>8</dim>
					<dim>4096</dim>
					<dim>40</dim>
				</port>
			</input>
			<output>
				<port id="3" precision="FP32" names="263,hidden_states.19">
					<dim>2</dim>
					<dim>8</dim>
					<dim>4096</dim>
					<dim>40</dim>
				</port>
			</output>
		</layer>
		<layer id="175" name="__module.down_blocks.0.attentions.0.transformer_blocks.0.attn1/aten::transpose/ScatterElementsUpdate_3" type="Const" version="opset1">
			<data element_type="i32" shape="4" offset="9252936" size="16" />
			<output>
				<port id="0" precision="I32">
					<dim>4</dim>
				</port>
			</output>
		</layer>
		<layer id="176" name="__module.down_blocks.0.attentions.0.transformer_blocks.0.attn1/aten::transpose/Transpose_3" type="Transpose" version="opset1">
			<input>
				<port id="0" precision="FP32">
					<dim>2</dim>
					<dim>8</dim>
					<dim>4096</dim>
					<dim>40</dim>
				</port>
				<port id="1" precision="I32">
					<dim>4</dim>
				</port>
			</input>
			<output>
				<port id="2" precision="FP32" names="264">
					<dim>2</dim>
					<dim>4096</dim>
					<dim>8</dim>
					<dim>40</dim>
				</port>
			</output>
		</layer>
		<layer id="177" name="__module.down_blocks.0.attentions.0.transformer_blocks.0.attn1/prim::ListConstruct/Reshape_0_3" type="Const" version="opset1">
			<data element_type="i32" shape="1" offset="8842040" size="4" />
			<rt_info>
				<attribute name="precise" version="0" />
			</rt_info>
			<output>
				<port id="0" precision="I32">
					<dim>1</dim>
				</port>
			</output>
		</layer>
		<layer id="178" name="__module.down_blocks.0.attentions.0.transformer_blocks.0.attn1/aten::mul/Multiply" type="Multiply" version="opset1">
			<data auto_broadcast="numpy" />
			<input>
				<port id="0" precision="I32" />
				<port id="1" precision="I32" />
			</input>
			<output>
				<port id="2" precision="I32" names="265,266" />
			</output>
		</layer>
		<layer id="179" name="Constant_114558" type="Const" version="opset1">
			<data element_type="i64" shape="1" offset="9252928" size="8" />
			<rt_info>
				<attribute name="precise" version="0" />
			</rt_info>
			<output>
				<port id="0" precision="I64">
					<dim>1</dim>
				</port>
			</output>
		</layer>
		<layer id="180" name="__module.down_blocks.0.attentions.0.transformer_blocks.0.attn1/prim::ListConstruct/Reshape_1_3" type="Reshape" version="opset1">
			<data special_zero="false" />
			<input>
				<port id="0" precision="I32" />
				<port id="1" precision="I64">
					<dim>1</dim>
				</port>
			</input>
			<output>
				<port id="2" precision="I32">
					<dim>1</dim>
				</port>
			</output>
		</layer>
		<layer id="181" name="__module.down_blocks.0.attentions.0.transformer_blocks.0.attn1/prim::ListConstruct/Concat_3" type="Concat" version="opset1">
			<data axis="0" />
			<input>
				<port id="0" precision="I32">
					<dim>1</dim>
				</port>
				<port id="1" precision="I32">
					<dim>1</dim>
				</port>
				<port id="2" precision="I32">
					<dim>1</dim>
				</port>
			</input>
			<output>
				<port id="3" precision="I32" names="267">
					<dim>3</dim>
				</port>
			</output>
		</layer>
		<layer id="182" name="__module.down_blocks.0.attentions.0.transformer_blocks.0.attn1/aten::reshape/Reshape" type="Reshape" version="opset1">
			<data special_zero="false" />
			<input>
				<port id="0" precision="FP32">
					<dim>2</dim>
					<dim>4096</dim>
					<dim>8</dim>
					<dim>40</dim>
				</port>
				<port id="1" precision="I32">
					<dim>3</dim>
				</port>
			</input>
			<output>
				<port id="2" precision="FP32" names="268,269,hidden_states.21,input.21">
					<dim>2</dim>
					<dim>4096</dim>
					<dim>320</dim>
				</port>
			</output>
		</layer>
		<layer id="183" name="Constant_34096_compressed" type="Const" version="opset1">
			<data element_type="f16" shape="320, 320" offset="9457752" size="204800" />
			<output>
				<port id="0" precision="FP16" names="271,weight.251">
					<dim>320</dim>
					<dim>320</dim>
				</port>
			</output>
		</layer>
		<layer id="184" name="Constant_34096" type="Convert" version="opset1">
			<data destination_type="f32" />
			<rt_info>
				<attribute name="decompression" version="0" />
			</rt_info>
			<input>
				<port id="0" precision="FP16">
					<dim>320</dim>
					<dim>320</dim>
				</port>
			</input>
			<output>
				<port id="1" precision="FP32">
					<dim>320</dim>
					<dim>320</dim>
				</port>
			</output>
		</layer>
		<layer id="185" name="__module.down_blocks.0.attentions.0.transformer_blocks.0.attn1.to_out.0/aten::linear/MatMul" type="MatMul" version="opset1">
			<data transpose_a="false" transpose_b="true" />
			<input>
				<port id="0" precision="FP32">
					<dim>2</dim>
					<dim>4096</dim>
					<dim>320</dim>
				</port>
				<port id="1" precision="FP32">
					<dim>320</dim>
					<dim>320</dim>
				</port>
			</input>
			<output>
				<port id="2" precision="FP32">
					<dim>2</dim>
					<dim>4096</dim>
					<dim>320</dim>
				</port>
			</output>
		</layer>
		<layer id="186" name="Constant_142577_compressed" type="Const" version="opset1">
			<data element_type="f16" shape="1, 1, 320" offset="9662552" size="640" />
			<output>
				<port id="0" precision="FP16">
					<dim>1</dim>
					<dim>1</dim>
					<dim>320</dim>
				</port>
			</output>
		</layer>
		<layer id="187" name="Constant_142577" type="Convert" version="opset1">
			<data destination_type="f32" />
			<rt_info>
				<attribute name="decompression" version="0" />
			</rt_info>
			<input>
				<port id="0" precision="FP16">
					<dim>1</dim>
					<dim>1</dim>
					<dim>320</dim>
				</port>
			</input>
			<output>
				<port id="1" precision="FP32">
					<dim>1</dim>
					<dim>1</dim>
					<dim>320</dim>
				</port>
			</output>
		</layer>
		<layer id="188" name="__module.down_blocks.0.attentions.0.transformer_blocks.0.attn1.to_out.0/aten::linear/Add" type="Add" version="opset1">
			<data auto_broadcast="numpy" />
			<input>
				<port id="0" precision="FP32">
					<dim>2</dim>
					<dim>4096</dim>
					<dim>320</dim>
				</port>
				<port id="1" precision="FP32">
					<dim>1</dim>
					<dim>1</dim>
					<dim>320</dim>
				</port>
			</input>
			<output>
				<port id="2" precision="FP32" names="272,274,attn_output.1,input.23">
					<dim>2</dim>
					<dim>4096</dim>
					<dim>320</dim>
				</port>
			</output>
		</layer>
		<layer id="189" name="__module.down_blocks.0.attentions.0.transformer_blocks.0/aten::add/Add" type="Add" version="opset1">
			<data auto_broadcast="numpy" />
			<input>
				<port id="0" precision="FP32">
					<dim>2</dim>
					<dim>4096</dim>
					<dim>320</dim>
				</port>
				<port id="1" precision="FP32">
					<dim>2</dim>
					<dim>4096</dim>
					<dim>320</dim>
				</port>
			</input>
			<output>
				<port id="2" precision="FP32" names="275,input.25">
					<dim>2</dim>
					<dim>4096</dim>
					<dim>320</dim>
				</port>
			</output>
		</layer>
		<layer id="190" name="__module.down_blocks.0.attentions.0.transformer_blocks.0.norm2/aten::layer_norm/Constant" type="Const" version="opset1">
			<data element_type="i32" shape="1" offset="8842040" size="4" />
			<output>
				<port id="0" precision="I32">
					<dim>1</dim>
				</port>
			</output>
		</layer>
		<layer id="191" name="__module.down_blocks.0.attentions.0.transformer_blocks.0.norm2/aten::layer_norm/MVN" type="MVN" version="opset6">
			<data eps="9.9999997473787516e-06" normalize_variance="true" eps_mode="INSIDE_SQRT" />
			<input>
				<port id="0" precision="FP32">
					<dim>2</dim>
					<dim>4096</dim>
					<dim>320</dim>
				</port>
				<port id="1" precision="I32">
					<dim>1</dim>
				</port>
			</input>
			<output>
				<port id="2" precision="FP32">
					<dim>2</dim>
					<dim>4096</dim>
					<dim>320</dim>
				</port>
			</output>
		</layer>
		<layer id="192" name="Constant_142578_compressed" type="Const" version="opset1">
			<data element_type="f16" shape="1, 1, 320" offset="9663192" size="640" />
			<output>
				<port id="0" precision="FP16">
					<dim>1</dim>
					<dim>1</dim>
					<dim>320</dim>
				</port>
			</output>
		</layer>
		<layer id="193" name="Constant_142578" type="Convert" version="opset1">
			<data destination_type="f32" />
			<rt_info>
				<attribute name="decompression" version="0" />
			</rt_info>
			<input>
				<port id="0" precision="FP16">
					<dim>1</dim>
					<dim>1</dim>
					<dim>320</dim>
				</port>
			</input>
			<output>
				<port id="1" precision="FP32">
					<dim>1</dim>
					<dim>1</dim>
					<dim>320</dim>
				</port>
			</output>
		</layer>
		<layer id="194" name="__module.down_blocks.0.attentions.0.transformer_blocks.0.norm2/aten::layer_norm/Multiply" type="Multiply" version="opset1">
			<data auto_broadcast="numpy" />
			<input>
				<port id="0" precision="FP32">
					<dim>2</dim>
					<dim>4096</dim>
					<dim>320</dim>
				</port>
				<port id="1" precision="FP32">
					<dim>1</dim>
					<dim>1</dim>
					<dim>320</dim>
				</port>
			</input>
			<output>
				<port id="2" precision="FP32">
					<dim>2</dim>
					<dim>4096</dim>
					<dim>320</dim>
				</port>
			</output>
		</layer>
		<layer id="195" name="Constant_142579_compressed" type="Const" version="opset1">
			<data element_type="f16" shape="1, 1, 320" offset="9663832" size="640" />
			<output>
				<port id="0" precision="FP16">
					<dim>1</dim>
					<dim>1</dim>
					<dim>320</dim>
				</port>
			</output>
		</layer>
		<layer id="196" name="Constant_142579" type="Convert" version="opset1">
			<data destination_type="f32" />
			<rt_info>
				<attribute name="decompression" version="0" />
			</rt_info>
			<input>
				<port id="0" precision="FP16">
					<dim>1</dim>
					<dim>1</dim>
					<dim>320</dim>
				</port>
			</input>
			<output>
				<port id="1" precision="FP32">
					<dim>1</dim>
					<dim>1</dim>
					<dim>320</dim>
				</port>
			</output>
		</layer>
		<layer id="197" name="__module.down_blocks.0.attentions.0.transformer_blocks.0.norm2/aten::layer_norm/Add" type="Add" version="opset1">
			<data auto_broadcast="numpy" />
			<input>
				<port id="0" precision="FP32">
					<dim>2</dim>
					<dim>4096</dim>
					<dim>320</dim>
				</port>
				<port id="1" precision="FP32">
					<dim>1</dim>
					<dim>1</dim>
					<dim>320</dim>
				</port>
			</input>
			<output>
				<port id="2" precision="FP32" names="279,input.27">
					<dim>2</dim>
					<dim>4096</dim>
					<dim>320</dim>
				</port>
			</output>
		</layer>
		<layer id="198" name="Constant_34124_compressed" type="Const" version="opset1">
			<data element_type="f16" shape="320, 320" offset="9664472" size="204800" />
			<output>
				<port id="0" precision="FP16" names="286,weight.255">
					<dim>320</dim>
					<dim>320</dim>
				</port>
			</output>
		</layer>
		<layer id="199" name="Constant_34124" type="Convert" version="opset1">
			<data destination_type="f32" />
			<rt_info>
				<attribute name="decompression" version="0" />
			</rt_info>
			<input>
				<port id="0" precision="FP16">
					<dim>320</dim>
					<dim>320</dim>
				</port>
			</input>
			<output>
				<port id="1" precision="FP32">
					<dim>320</dim>
					<dim>320</dim>
				</port>
			</output>
		</layer>
		<layer id="200" name="__module.down_blocks.0.attentions.0.transformer_blocks.0.attn2.to_q/aten::linear/MatMul" type="MatMul" version="opset1">
			<data transpose_a="false" transpose_b="true" />
			<input>
				<port id="0" precision="FP32">
					<dim>2</dim>
					<dim>4096</dim>
					<dim>320</dim>
				</port>
				<port id="1" precision="FP32">
					<dim>320</dim>
					<dim>320</dim>
				</port>
			</input>
			<output>
				<port id="2" precision="FP32" names="287,query.5">
					<dim>2</dim>
					<dim>4096</dim>
					<dim>320</dim>
				</port>
			</output>
		</layer>
		<layer id="201" name="__module.down_blocks.0.attentions.0.transformer_blocks.0.attn2/prim::ListConstruct/Concat" type="Const" version="opset1">
			<data element_type="i32" shape="4" offset="9869272" size="16" />
			<rt_info>
				<attribute name="precise" version="0" />
			</rt_info>
			<output>
				<port id="0" precision="I32" names="298">
					<dim>4</dim>
				</port>
			</output>
		</layer>
		<layer id="202" name="__module.down_blocks.0.attentions.0.transformer_blocks.0.attn2/aten::view/Reshape" type="Reshape" version="opset1">
			<data special_zero="false" />
			<input>
				<port id="0" precision="FP32">
					<dim>2</dim>
					<dim>4096</dim>
					<dim>320</dim>
				</port>
				<port id="1" precision="I32">
					<dim>4</dim>
				</port>
			</input>
			<output>
				<port id="2" precision="FP32" names="299">
					<dim>2</dim>
					<dim>4096</dim>
					<dim>8</dim>
					<dim>40</dim>
				</port>
			</output>
		</layer>
		<layer id="203" name="__module.down_blocks.0.attentions.0.transformer_blocks.0.attn2/aten::transpose/ScatterElementsUpdate" type="Const" version="opset1">
			<data element_type="i32" shape="4" offset="9252936" size="16" />
			<output>
				<port id="0" precision="I32">
					<dim>4</dim>
				</port>
			</output>
		</layer>
		<layer id="204" name="__module.down_blocks.0.attentions.0.transformer_blocks.0.attn2/aten::transpose/Transpose" type="Transpose" version="opset1">
			<input>
				<port id="0" precision="FP32">
					<dim>2</dim>
					<dim>4096</dim>
					<dim>8</dim>
					<dim>40</dim>
				</port>
				<port id="1" precision="I32">
					<dim>4</dim>
				</port>
			</input>
			<output>
				<port id="2" precision="FP32" names="300,query.7">
					<dim>2</dim>
					<dim>8</dim>
					<dim>4096</dim>
					<dim>40</dim>
				</port>
			</output>
		</layer>
		<layer id="205" name="Constant_34127_compressed" type="Const" version="opset1">
			<data element_type="f16" shape="320, 768" offset="9869288" size="491520" />
			<output>
				<port id="0" precision="FP16" names="288,weight.257">
					<dim>320</dim>
					<dim>768</dim>
				</port>
			</output>
		</layer>
		<layer id="206" name="Constant_34127" type="Convert" version="opset1">
			<data destination_type="f32" />
			<rt_info>
				<attribute name="decompression" version="0" />
			</rt_info>
			<input>
				<port id="0" precision="FP16">
					<dim>320</dim>
					<dim>768</dim>
				</port>
			</input>
			<output>
				<port id="1" precision="FP32">
					<dim>320</dim>
					<dim>768</dim>
				</port>
			</output>
		</layer>
		<layer id="207" name="__module.down_blocks.0.attentions.0.transformer_blocks.0.attn2.to_k/aten::linear/MatMul" type="MatMul" version="opset1">
			<data transpose_a="false" transpose_b="true" />
			<input>
				<port id="0" precision="FP32">
					<dim>2</dim>
					<dim>77</dim>
					<dim>768</dim>
				</port>
				<port id="1" precision="FP32">
					<dim>320</dim>
					<dim>768</dim>
				</port>
			</input>
			<output>
				<port id="2" precision="FP32" names="289,key.5">
					<dim>2</dim>
					<dim>77</dim>
					<dim>320</dim>
				</port>
			</output>
		</layer>
		<layer id="208" name="__module.down_blocks.0.attentions.0.transformer_blocks.0.attn2/prim::ListConstruct/Concat_1" type="Const" version="opset1">
			<data element_type="i32" shape="4" offset="9869272" size="16" />
			<rt_info>
				<attribute name="precise" version="0" />
			</rt_info>
			<output>
				<port id="0" precision="I32" names="301">
					<dim>4</dim>
				</port>
			</output>
		</layer>
		<layer id="209" name="__module.down_blocks.0.attentions.0.transformer_blocks.0.attn2/aten::view/Reshape_1" type="Reshape" version="opset1">
			<data special_zero="false" />
			<input>
				<port id="0" precision="FP32">
					<dim>2</dim>
					<dim>77</dim>
					<dim>320</dim>
				</port>
				<port id="1" precision="I32">
					<dim>4</dim>
				</port>
			</input>
			<output>
				<port id="2" precision="FP32" names="302">
					<dim>2</dim>
					<dim>77</dim>
					<dim>8</dim>
					<dim>40</dim>
				</port>
			</output>
		</layer>
		<layer id="210" name="__module.down_blocks.0.attentions.0.transformer_blocks.0.attn2/aten::transpose/ScatterElementsUpdate_1" type="Const" version="opset1">
			<data element_type="i32" shape="4" offset="9252936" size="16" />
			<output>
				<port id="0" precision="I32">
					<dim>4</dim>
				</port>
			</output>
		</layer>
		<layer id="211" name="__module.down_blocks.0.attentions.0.transformer_blocks.0.attn2/aten::transpose/Transpose_1" type="Transpose" version="opset1">
			<input>
				<port id="0" precision="FP32">
					<dim>2</dim>
					<dim>77</dim>
					<dim>8</dim>
					<dim>40</dim>
				</port>
				<port id="1" precision="I32">
					<dim>4</dim>
				</port>
			</input>
			<output>
				<port id="2" precision="FP32" names="303,key.7">
					<dim>2</dim>
					<dim>8</dim>
					<dim>77</dim>
					<dim>40</dim>
				</port>
			</output>
		</layer>
		<layer id="212" name="Constant_34130_compressed" type="Const" version="opset1">
			<data element_type="f16" shape="320, 768" offset="10360808" size="491520" />
			<output>
				<port id="0" precision="FP16" names="290,weight.259">
					<dim>320</dim>
					<dim>768</dim>
				</port>
			</output>
		</layer>
		<layer id="213" name="Constant_34130" type="Convert" version="opset1">
			<data destination_type="f32" />
			<rt_info>
				<attribute name="decompression" version="0" />
			</rt_info>
			<input>
				<port id="0" precision="FP16">
					<dim>320</dim>
					<dim>768</dim>
				</port>
			</input>
			<output>
				<port id="1" precision="FP32">
					<dim>320</dim>
					<dim>768</dim>
				</port>
			</output>
		</layer>
		<layer id="214" name="__module.down_blocks.0.attentions.0.transformer_blocks.0.attn2.to_v/aten::linear/MatMul" type="MatMul" version="opset1">
			<data transpose_a="false" transpose_b="true" />
			<input>
				<port id="0" precision="FP32">
					<dim>2</dim>
					<dim>77</dim>
					<dim>768</dim>
				</port>
				<port id="1" precision="FP32">
					<dim>320</dim>
					<dim>768</dim>
				</port>
			</input>
			<output>
				<port id="2" precision="FP32" names="291,value.5">
					<dim>2</dim>
					<dim>77</dim>
					<dim>320</dim>
				</port>
			</output>
		</layer>
		<layer id="215" name="__module.down_blocks.0.attentions.0.transformer_blocks.0.attn2/prim::ListConstruct/Concat_2" type="Const" version="opset1">
			<data element_type="i32" shape="4" offset="9869272" size="16" />
			<rt_info>
				<attribute name="precise" version="0" />
			</rt_info>
			<output>
				<port id="0" precision="I32" names="304">
					<dim>4</dim>
				</port>
			</output>
		</layer>
		<layer id="216" name="__module.down_blocks.0.attentions.0.transformer_blocks.0.attn2/aten::view/Reshape_2" type="Reshape" version="opset1">
			<data special_zero="false" />
			<input>
				<port id="0" precision="FP32">
					<dim>2</dim>
					<dim>77</dim>
					<dim>320</dim>
				</port>
				<port id="1" precision="I32">
					<dim>4</dim>
				</port>
			</input>
			<output>
				<port id="2" precision="FP32" names="305">
					<dim>2</dim>
					<dim>77</dim>
					<dim>8</dim>
					<dim>40</dim>
				</port>
			</output>
		</layer>
		<layer id="217" name="__module.down_blocks.0.attentions.0.transformer_blocks.0.attn2/aten::transpose/ScatterElementsUpdate_2" type="Const" version="opset1">
			<data element_type="i32" shape="4" offset="9252936" size="16" />
			<output>
				<port id="0" precision="I32">
					<dim>4</dim>
				</port>
			</output>
		</layer>
		<layer id="218" name="__module.down_blocks.0.attentions.0.transformer_blocks.0.attn2/aten::transpose/Transpose_2" type="Transpose" version="opset1">
			<input>
				<port id="0" precision="FP32">
					<dim>2</dim>
					<dim>77</dim>
					<dim>8</dim>
					<dim>40</dim>
				</port>
				<port id="1" precision="I32">
					<dim>4</dim>
				</port>
			</input>
			<output>
				<port id="2" precision="FP32" names="306,value.7">
					<dim>2</dim>
					<dim>8</dim>
					<dim>77</dim>
					<dim>40</dim>
				</port>
			</output>
		</layer>
		<layer id="219" name="__module.down_blocks.0.attentions.0.transformer_blocks.0.attn2/aten::scaled_dot_product_attention/ScaledDotProductAttention" type="ScaledDotProductAttention" version="opset13">
			<data causal="false" />
			<input>
				<port id="0" precision="FP32">
					<dim>2</dim>
					<dim>8</dim>
					<dim>4096</dim>
					<dim>40</dim>
				</port>
				<port id="1" precision="FP32">
					<dim>2</dim>
					<dim>8</dim>
					<dim>77</dim>
					<dim>40</dim>
				</port>
				<port id="2" precision="FP32">
					<dim>2</dim>
					<dim>8</dim>
					<dim>77</dim>
					<dim>40</dim>
				</port>
			</input>
			<output>
				<port id="3" precision="FP32" names="307,hidden_states.25">
					<dim>2</dim>
					<dim>8</dim>
					<dim>4096</dim>
					<dim>40</dim>
				</port>
			</output>
		</layer>
		<layer id="220" name="__module.down_blocks.0.attentions.0.transformer_blocks.0.attn2/aten::transpose/ScatterElementsUpdate_3" type="Const" version="opset1">
			<data element_type="i32" shape="4" offset="9252936" size="16" />
			<output>
				<port id="0" precision="I32">
					<dim>4</dim>
				</port>
			</output>
		</layer>
		<layer id="221" name="__module.down_blocks.0.attentions.0.transformer_blocks.0.attn2/aten::transpose/Transpose_3" type="Transpose" version="opset1">
			<input>
				<port id="0" precision="FP32">
					<dim>2</dim>
					<dim>8</dim>
					<dim>4096</dim>
					<dim>40</dim>
				</port>
				<port id="1" precision="I32">
					<dim>4</dim>
				</port>
			</input>
			<output>
				<port id="2" precision="FP32" names="308">
					<dim>2</dim>
					<dim>4096</dim>
					<dim>8</dim>
					<dim>40</dim>
				</port>
			</output>
		</layer>
		<layer id="222" name="__module.down_blocks.0.attentions.0.transformer_blocks.0.attn2/prim::ListConstruct/Concat_3" type="Const" version="opset1">
			<data element_type="i32" shape="3" offset="10852328" size="12" />
			<rt_info>
				<attribute name="precise" version="0" />
			</rt_info>
			<output>
				<port id="0" precision="I32" names="311">
					<dim>3</dim>
				</port>
			</output>
		</layer>
		<layer id="223" name="__module.down_blocks.0.attentions.0.transformer_blocks.0.attn2/aten::reshape/Reshape" type="Reshape" version="opset1">
			<data special_zero="false" />
			<input>
				<port id="0" precision="FP32">
					<dim>2</dim>
					<dim>4096</dim>
					<dim>8</dim>
					<dim>40</dim>
				</port>
				<port id="1" precision="I32">
					<dim>3</dim>
				</port>
			</input>
			<output>
				<port id="2" precision="FP32" names="312,313,hidden_states.27,input.29">
					<dim>2</dim>
					<dim>4096</dim>
					<dim>320</dim>
				</port>
			</output>
		</layer>
		<layer id="224" name="Constant_34439_compressed" type="Const" version="opset1">
			<data element_type="f16" shape="320, 320" offset="10852340" size="204800" />
			<output>
				<port id="0" precision="FP16" names="315,weight.261">
					<dim>320</dim>
					<dim>320</dim>
				</port>
			</output>
		</layer>
		<layer id="225" name="Constant_34439" type="Convert" version="opset1">
			<data destination_type="f32" />
			<rt_info>
				<attribute name="decompression" version="0" />
			</rt_info>
			<input>
				<port id="0" precision="FP16">
					<dim>320</dim>
					<dim>320</dim>
				</port>
			</input>
			<output>
				<port id="1" precision="FP32">
					<dim>320</dim>
					<dim>320</dim>
				</port>
			</output>
		</layer>
		<layer id="226" name="__module.down_blocks.0.attentions.0.transformer_blocks.0.attn2.to_out.0/aten::linear/MatMul" type="MatMul" version="opset1">
			<data transpose_a="false" transpose_b="true" />
			<input>
				<port id="0" precision="FP32">
					<dim>2</dim>
					<dim>4096</dim>
					<dim>320</dim>
				</port>
				<port id="1" precision="FP32">
					<dim>320</dim>
					<dim>320</dim>
				</port>
			</input>
			<output>
				<port id="2" precision="FP32">
					<dim>2</dim>
					<dim>4096</dim>
					<dim>320</dim>
				</port>
			</output>
		</layer>
		<layer id="227" name="Constant_142580_compressed" type="Const" version="opset1">
			<data element_type="f16" shape="1, 1, 320" offset="11057140" size="640" />
			<output>
				<port id="0" precision="FP16">
					<dim>1</dim>
					<dim>1</dim>
					<dim>320</dim>
				</port>
			</output>
		</layer>
		<layer id="228" name="Constant_142580" type="Convert" version="opset1">
			<data destination_type="f32" />
			<rt_info>
				<attribute name="decompression" version="0" />
			</rt_info>
			<input>
				<port id="0" precision="FP16">
					<dim>1</dim>
					<dim>1</dim>
					<dim>320</dim>
				</port>
			</input>
			<output>
				<port id="1" precision="FP32">
					<dim>1</dim>
					<dim>1</dim>
					<dim>320</dim>
				</port>
			</output>
		</layer>
		<layer id="229" name="__module.down_blocks.0.attentions.0.transformer_blocks.0.attn2.to_out.0/aten::linear/Add" type="Add" version="opset1">
			<data auto_broadcast="numpy" />
			<input>
				<port id="0" precision="FP32">
					<dim>2</dim>
					<dim>4096</dim>
					<dim>320</dim>
				</port>
				<port id="1" precision="FP32">
					<dim>1</dim>
					<dim>1</dim>
					<dim>320</dim>
				</port>
			</input>
			<output>
				<port id="2" precision="FP32" names="316,318,attn_output.3,input.31">
					<dim>2</dim>
					<dim>4096</dim>
					<dim>320</dim>
				</port>
			</output>
		</layer>
		<layer id="230" name="__module.down_blocks.0.attentions.0.transformer_blocks.0/aten::add/Add_1" type="Add" version="opset1">
			<data auto_broadcast="numpy" />
			<input>
				<port id="0" precision="FP32">
					<dim>2</dim>
					<dim>4096</dim>
					<dim>320</dim>
				</port>
				<port id="1" precision="FP32">
					<dim>2</dim>
					<dim>4096</dim>
					<dim>320</dim>
				</port>
			</input>
			<output>
				<port id="2" precision="FP32" names="319,input.33">
					<dim>2</dim>
					<dim>4096</dim>
					<dim>320</dim>
				</port>
			</output>
		</layer>
		<layer id="231" name="__module.down_blocks.0.attentions.0.transformer_blocks.0.norm3/aten::layer_norm/Constant" type="Const" version="opset1">
			<data element_type="i32" shape="1" offset="8842040" size="4" />
			<output>
				<port id="0" precision="I32">
					<dim>1</dim>
				</port>
			</output>
		</layer>
		<layer id="232" name="__module.down_blocks.0.attentions.0.transformer_blocks.0.norm3/aten::layer_norm/MVN" type="MVN" version="opset6">
			<data eps="9.9999997473787516e-06" normalize_variance="true" eps_mode="INSIDE_SQRT" />
			<input>
				<port id="0" precision="FP32">
					<dim>2</dim>
					<dim>4096</dim>
					<dim>320</dim>
				</port>
				<port id="1" precision="I32">
					<dim>1</dim>
				</port>
			</input>
			<output>
				<port id="2" precision="FP32">
					<dim>2</dim>
					<dim>4096</dim>
					<dim>320</dim>
				</port>
			</output>
		</layer>
		<layer id="233" name="Constant_142581_compressed" type="Const" version="opset1">
			<data element_type="f16" shape="1, 1, 320" offset="11057780" size="640" />
			<output>
				<port id="0" precision="FP16">
					<dim>1</dim>
					<dim>1</dim>
					<dim>320</dim>
				</port>
			</output>
		</layer>
		<layer id="234" name="Constant_142581" type="Convert" version="opset1">
			<data destination_type="f32" />
			<rt_info>
				<attribute name="decompression" version="0" />
			</rt_info>
			<input>
				<port id="0" precision="FP16">
					<dim>1</dim>
					<dim>1</dim>
					<dim>320</dim>
				</port>
			</input>
			<output>
				<port id="1" precision="FP32">
					<dim>1</dim>
					<dim>1</dim>
					<dim>320</dim>
				</port>
			</output>
		</layer>
		<layer id="235" name="__module.down_blocks.0.attentions.0.transformer_blocks.0.norm3/aten::layer_norm/Multiply" type="Multiply" version="opset1">
			<data auto_broadcast="numpy" />
			<input>
				<port id="0" precision="FP32">
					<dim>2</dim>
					<dim>4096</dim>
					<dim>320</dim>
				</port>
				<port id="1" precision="FP32">
					<dim>1</dim>
					<dim>1</dim>
					<dim>320</dim>
				</port>
			</input>
			<output>
				<port id="2" precision="FP32">
					<dim>2</dim>
					<dim>4096</dim>
					<dim>320</dim>
				</port>
			</output>
		</layer>
		<layer id="236" name="Constant_142582_compressed" type="Const" version="opset1">
			<data element_type="f16" shape="1, 1, 320" offset="11058420" size="640" />
			<output>
				<port id="0" precision="FP16">
					<dim>1</dim>
					<dim>1</dim>
					<dim>320</dim>
				</port>
			</output>
		</layer>
		<layer id="237" name="Constant_142582" type="Convert" version="opset1">
			<data destination_type="f32" />
			<rt_info>
				<attribute name="decompression" version="0" />
			</rt_info>
			<input>
				<port id="0" precision="FP16">
					<dim>1</dim>
					<dim>1</dim>
					<dim>320</dim>
				</port>
			</input>
			<output>
				<port id="1" precision="FP32">
					<dim>1</dim>
					<dim>1</dim>
					<dim>320</dim>
				</port>
			</output>
		</layer>
		<layer id="238" name="__module.down_blocks.0.attentions.0.transformer_blocks.0.norm3/aten::layer_norm/Add" type="Add" version="opset1">
			<data auto_broadcast="numpy" />
			<input>
				<port id="0" precision="FP32">
					<dim>2</dim>
					<dim>4096</dim>
					<dim>320</dim>
				</port>
				<port id="1" precision="FP32">
					<dim>1</dim>
					<dim>1</dim>
					<dim>320</dim>
				</port>
			</input>
			<output>
				<port id="2" precision="FP32" names="323,input.35">
					<dim>2</dim>
					<dim>4096</dim>
					<dim>320</dim>
				</port>
			</output>
		</layer>
		<layer id="239" name="Constant_34466_compressed" type="Const" version="opset1">
			<data element_type="f16" shape="2560, 320" offset="11059060" size="1638400" />
			<output>
				<port id="0" precision="FP16" names="330,weight.265">
					<dim>2560</dim>
					<dim>320</dim>
				</port>
			</output>
		</layer>
		<layer id="240" name="Constant_34466" type="Convert" version="opset1">
			<data destination_type="f32" />
			<rt_info>
				<attribute name="decompression" version="0" />
			</rt_info>
			<input>
				<port id="0" precision="FP16">
					<dim>2560</dim>
					<dim>320</dim>
				</port>
			</input>
			<output>
				<port id="1" precision="FP32">
					<dim>2560</dim>
					<dim>320</dim>
				</port>
			</output>
		</layer>
		<layer id="241" name="__module.down_blocks.0.attentions.0.transformer_blocks.0.ff.net.0.proj/aten::linear/MatMul" type="MatMul" version="opset1">
			<data transpose_a="false" transpose_b="true" />
			<input>
				<port id="0" precision="FP32">
					<dim>2</dim>
					<dim>4096</dim>
					<dim>320</dim>
				</port>
				<port id="1" precision="FP32">
					<dim>2560</dim>
					<dim>320</dim>
				</port>
			</input>
			<output>
				<port id="2" precision="FP32">
					<dim>2</dim>
					<dim>4096</dim>
					<dim>2560</dim>
				</port>
			</output>
		</layer>
		<layer id="242" name="Constant_142583_compressed" type="Const" version="opset1">
			<data element_type="f16" shape="1, 1, 2560" offset="12697460" size="5120" />
			<output>
				<port id="0" precision="FP16">
					<dim>1</dim>
					<dim>1</dim>
					<dim>2560</dim>
				</port>
			</output>
		</layer>
		<layer id="243" name="Constant_142583" type="Convert" version="opset1">
			<data destination_type="f32" />
			<rt_info>
				<attribute name="decompression" version="0" />
			</rt_info>
			<input>
				<port id="0" precision="FP16">
					<dim>1</dim>
					<dim>1</dim>
					<dim>2560</dim>
				</port>
			</input>
			<output>
				<port id="1" precision="FP32">
					<dim>1</dim>
					<dim>1</dim>
					<dim>2560</dim>
				</port>
			</output>
		</layer>
		<layer id="244" name="__module.down_blocks.0.attentions.0.transformer_blocks.0.ff.net.0.proj/aten::linear/Add" type="Add" version="opset1">
			<data auto_broadcast="numpy" />
			<input>
				<port id="0" precision="FP32">
					<dim>2</dim>
					<dim>4096</dim>
					<dim>2560</dim>
				</port>
				<port id="1" precision="FP32">
					<dim>1</dim>
					<dim>1</dim>
					<dim>2560</dim>
				</port>
			</input>
			<output>
				<port id="2" precision="FP32" names="331">
					<dim>2</dim>
					<dim>4096</dim>
					<dim>2560</dim>
				</port>
			</output>
		</layer>
		<layer id="245" name="134" type="Const" version="opset1">
			<data element_type="i32" shape="" offset="8842040" size="4" />
			<output>
				<port id="0" precision="I32" names="134" />
			</output>
		</layer>
		<layer id="246" name="__module.down_blocks.0.attentions.0.transformer_blocks.0.ff.net.0/prim::ListUnpack/ShapeOf" type="ShapeOf" version="opset3">
			<data output_type="i32" />
			<input>
				<port id="0" precision="FP32">
					<dim>2</dim>
					<dim>4096</dim>
					<dim>2560</dim>
				</port>
			</input>
			<output>
				<port id="1" precision="I32">
					<dim>3</dim>
				</port>
			</output>
		</layer>
		<layer id="247" name="Constant_76099" type="Const" version="opset1">
			<data element_type="i32" shape="1" offset="1868832" size="4" />
			<output>
				<port id="0" precision="I32">
					<dim>1</dim>
				</port>
			</output>
		</layer>
		<layer id="248" name="__module.down_blocks.0.attentions.0.transformer_blocks.0.ff.net.0/prim::ListUnpack/Gather" type="Gather" version="opset8">
			<data batch_dims="0" />
			<input>
				<port id="0" precision="I32">
					<dim>3</dim>
				</port>
				<port id="1" precision="I32" />
				<port id="2" precision="I32">
					<dim>1</dim>
				</port>
			</input>
			<output>
				<port id="3" precision="I32" />
			</output>
		</layer>
		<layer id="249" name="__module.down_blocks.0.attentions.0.transformer_blocks.0.ff.net.0/prim::ListUnpack/Divide" type="Divide" version="opset1">
			<data auto_broadcast="numpy" m_pythondiv="true" />
			<input>
				<port id="0" precision="I32" />
				<port id="1" precision="I32" />
			</input>
			<output>
				<port id="2" precision="I32" />
			</output>
		</layer>
		<layer id="250" name="__module.down_blocks.0.attentions.0.transformer_blocks.0.ff.net.0/prim::ListUnpack/Mod" type="Mod" version="opset1">
			<data auto_broadcast="numpy" />
			<input>
				<port id="0" precision="I32" />
				<port id="1" precision="I32" />
			</input>
			<output>
				<port id="2" precision="I32" />
			</output>
		</layer>
		<layer id="251" name="__module.down_blocks.0.attentions.0.transformer_blocks.0.ff.net.0/prim::ListUnpack/Greater" type="Greater" version="opset1">
			<data auto_broadcast="numpy" />
			<input>
				<port id="0" precision="I32" />
				<port id="1" precision="I32">
					<dim>1</dim>
				</port>
			</input>
			<output>
				<port id="2" precision="BOOL">
					<dim>1</dim>
				</port>
			</output>
		</layer>
		<layer id="252" name="__module.down_blocks.0.attentions.0.transformer_blocks.0.ff.net.0/prim::ListUnpack/Convert" type="Convert" version="opset1">
			<data destination_type="i32" />
			<input>
				<port id="0" precision="BOOL">
					<dim>1</dim>
				</port>
			</input>
			<output>
				<port id="1" precision="I32">
					<dim>1</dim>
				</port>
			</output>
		</layer>
		<layer id="253" name="__module.down_blocks.0.attentions.0.transformer_blocks.0.ff.net.0/prim::ListUnpack/Add" type="Add" version="opset1">
			<data auto_broadcast="numpy" />
			<input>
				<port id="0" precision="I32" />
				<port id="1" precision="I32">
					<dim>1</dim>
				</port>
			</input>
			<output>
				<port id="2" precision="I32">
					<dim>1</dim>
				</port>
			</output>
		</layer>
		<layer id="254" name="Constant_76108" type="Const" version="opset1">
			<data element_type="i32" shape="1" offset="1868844" size="4" />
			<rt_info>
				<attribute name="precise" version="0" />
			</rt_info>
			<output>
				<port id="0" precision="I32">
					<dim>1</dim>
				</port>
			</output>
		</layer>
		<layer id="255" name="__module.down_blocks.0.attentions.0.transformer_blocks.0.ff.net.0/prim::ListUnpack/Broadcast" type="Broadcast" version="opset3">
			<data mode="numpy" />
			<input>
				<port id="0" precision="I32">
					<dim>1</dim>
				</port>
				<port id="1" precision="I32">
					<dim>1</dim>
				</port>
			</input>
			<output>
				<port id="2" precision="I32">
					<dim>1</dim>
				</port>
			</output>
		</layer>
		<layer id="256" name="Constant_76100" type="Const" version="opset1">
			<data element_type="i32" shape="1" offset="8842040" size="4" />
			<output>
				<port id="0" precision="I32">
					<dim>1</dim>
				</port>
			</output>
		</layer>
		<layer id="257" name="__module.down_blocks.0.attentions.0.transformer_blocks.0.ff.net.0/prim::ListUnpack/Concat" type="Concat" version="opset1">
			<data axis="0" />
			<input>
				<port id="0" precision="I32">
					<dim>1</dim>
				</port>
				<port id="1" precision="I32">
					<dim>1</dim>
				</port>
			</input>
			<output>
				<port id="2" precision="I32">
					<dim>2</dim>
				</port>
			</output>
		</layer>
		<layer id="258" name="__module.down_blocks.0.attentions.0.transformer_blocks.0.ff.net.0/prim::ListUnpack/VariadicSplit" type="VariadicSplit" version="opset1">
			<input>
				<port id="0" precision="FP32">
					<dim>2</dim>
					<dim>4096</dim>
					<dim>2560</dim>
				</port>
				<port id="1" precision="I32" />
				<port id="2" precision="I32">
					<dim>2</dim>
				</port>
			</input>
			<output>
				<port id="3" precision="FP32" names="333,hidden_states.31">
					<dim>2</dim>
					<dim>4096</dim>
					<dim>1280</dim>
				</port>
				<port id="4" precision="FP32" names="334,gate.1">
					<dim>2</dim>
					<dim>4096</dim>
					<dim>1280</dim>
				</port>
			</output>
		</layer>
		<layer id="259" name="__module.down_blocks.0.attentions.0.transformer_blocks.0.ff.net.0/aten::gelu/Gelu" type="Gelu" version="opset7">
			<data approximation_mode="ERF" />
			<input>
				<port id="0" precision="FP32">
					<dim>2</dim>
					<dim>4096</dim>
					<dim>1280</dim>
				</port>
			</input>
			<output>
				<port id="1" precision="FP32" names="335">
					<dim>2</dim>
					<dim>4096</dim>
					<dim>1280</dim>
				</port>
			</output>
		</layer>
		<layer id="260" name="__module.down_blocks.0.attentions.0.transformer_blocks.0.ff.net.0/aten::mul/Multiply" type="Multiply" version="opset1">
			<data auto_broadcast="numpy" />
			<input>
				<port id="0" precision="FP32">
					<dim>2</dim>
					<dim>4096</dim>
					<dim>1280</dim>
				</port>
				<port id="1" precision="FP32">
					<dim>2</dim>
					<dim>4096</dim>
					<dim>1280</dim>
				</port>
			</input>
			<output>
				<port id="2" precision="FP32" names="336,input.37">
					<dim>2</dim>
					<dim>4096</dim>
					<dim>1280</dim>
				</port>
			</output>
		</layer>
		<layer id="261" name="Constant_34477_compressed" type="Const" version="opset1">
			<data element_type="f16" shape="320, 1280" offset="12702580" size="819200" />
			<output>
				<port id="0" precision="FP16" names="339,weight.267">
					<dim>320</dim>
					<dim>1280</dim>
				</port>
			</output>
		</layer>
		<layer id="262" name="Constant_34477" type="Convert" version="opset1">
			<data destination_type="f32" />
			<rt_info>
				<attribute name="decompression" version="0" />
			</rt_info>
			<input>
				<port id="0" precision="FP16">
					<dim>320</dim>
					<dim>1280</dim>
				</port>
			</input>
			<output>
				<port id="1" precision="FP32">
					<dim>320</dim>
					<dim>1280</dim>
				</port>
			</output>
		</layer>
		<layer id="263" name="__module.down_blocks.0.attentions.0.transformer_blocks.0.ff.net.2/aten::linear/MatMul" type="MatMul" version="opset1">
			<data transpose_a="false" transpose_b="true" />
			<input>
				<port id="0" precision="FP32">
					<dim>2</dim>
					<dim>4096</dim>
					<dim>1280</dim>
				</port>
				<port id="1" precision="FP32">
					<dim>320</dim>
					<dim>1280</dim>
				</port>
			</input>
			<output>
				<port id="2" precision="FP32">
					<dim>2</dim>
					<dim>4096</dim>
					<dim>320</dim>
				</port>
			</output>
		</layer>
		<layer id="264" name="Constant_142584_compressed" type="Const" version="opset1">
			<data element_type="f16" shape="1, 1, 320" offset="13521780" size="640" />
			<output>
				<port id="0" precision="FP16">
					<dim>1</dim>
					<dim>1</dim>
					<dim>320</dim>
				</port>
			</output>
		</layer>
		<layer id="265" name="Constant_142584" type="Convert" version="opset1">
			<data destination_type="f32" />
			<rt_info>
				<attribute name="decompression" version="0" />
			</rt_info>
			<input>
				<port id="0" precision="FP16">
					<dim>1</dim>
					<dim>1</dim>
					<dim>320</dim>
				</port>
			</input>
			<output>
				<port id="1" precision="FP32">
					<dim>1</dim>
					<dim>1</dim>
					<dim>320</dim>
				</port>
			</output>
		</layer>
		<layer id="266" name="__module.down_blocks.0.attentions.0.transformer_blocks.0.ff.net.2/aten::linear/Add" type="Add" version="opset1">
			<data auto_broadcast="numpy" />
			<input>
				<port id="0" precision="FP32">
					<dim>2</dim>
					<dim>4096</dim>
					<dim>320</dim>
				</port>
				<port id="1" precision="FP32">
					<dim>1</dim>
					<dim>1</dim>
					<dim>320</dim>
				</port>
			</input>
			<output>
				<port id="2" precision="FP32" names="340,ff_output.1">
					<dim>2</dim>
					<dim>4096</dim>
					<dim>320</dim>
				</port>
			</output>
		</layer>
		<layer id="267" name="__module.down_blocks.0.attentions.0.transformer_blocks.0/aten::add/Add_2" type="Add" version="opset1">
			<data auto_broadcast="numpy" />
			<input>
				<port id="0" precision="FP32">
					<dim>2</dim>
					<dim>4096</dim>
					<dim>320</dim>
				</port>
				<port id="1" precision="FP32">
					<dim>2</dim>
					<dim>4096</dim>
					<dim>320</dim>
				</port>
			</input>
			<output>
				<port id="2" precision="FP32" names="341,hidden_states.33">
					<dim>2</dim>
					<dim>4096</dim>
					<dim>320</dim>
				</port>
			</output>
		</layer>
		<layer id="268" name="__module.down_blocks.0.attentions.0/prim::ListConstruct/Concat_1" type="Const" version="opset1">
			<data element_type="i32" shape="4" offset="13522420" size="16" />
			<rt_info>
				<attribute name="precise" version="0" />
			</rt_info>
			<output>
				<port id="0" precision="I32" names="342">
					<dim>4</dim>
				</port>
			</output>
		</layer>
		<layer id="269" name="__module.down_blocks.0.attentions.0/aten::reshape/Reshape_1" type="Reshape" version="opset1">
			<data special_zero="false" />
			<input>
				<port id="0" precision="FP32">
					<dim>2</dim>
					<dim>4096</dim>
					<dim>320</dim>
				</port>
				<port id="1" precision="I32">
					<dim>4</dim>
				</port>
			</input>
			<output>
				<port id="2" precision="FP32" names="343">
					<dim>2</dim>
					<dim>64</dim>
					<dim>64</dim>
					<dim>320</dim>
				</port>
			</output>
		</layer>
		<layer id="270" name="Constant_34500" type="Const" version="opset1">
			<data element_type="i32" shape="4" offset="13522436" size="16" />
			<output>
				<port id="0" precision="I32" names="344">
					<dim>4</dim>
				</port>
			</output>
		</layer>
		<layer id="271" name="__module.down_blocks.0.attentions.0/aten::permute/Transpose_1" type="Transpose" version="opset1">
			<input>
				<port id="0" precision="FP32">
					<dim>2</dim>
					<dim>64</dim>
					<dim>64</dim>
					<dim>320</dim>
				</port>
				<port id="1" precision="I32">
					<dim>4</dim>
				</port>
			</input>
			<output>
				<port id="2" precision="FP32" names="345">
					<dim>2</dim>
					<dim>320</dim>
					<dim>64</dim>
					<dim>64</dim>
				</port>
			</output>
		</layer>
		<layer id="272" name="Constant_34505_compressed" type="Const" version="opset1">
			<data element_type="f16" shape="320, 320, 1, 1" offset="13522452" size="204800" />
			<output>
				<port id="0" precision="FP16" names="348,weight.269">
					<dim>320</dim>
					<dim>320</dim>
					<dim>1</dim>
					<dim>1</dim>
				</port>
			</output>
		</layer>
		<layer id="273" name="Constant_34505" type="Convert" version="opset1">
			<data destination_type="f32" />
			<rt_info>
				<attribute name="decompression" version="0" />
			</rt_info>
			<input>
				<port id="0" precision="FP16">
					<dim>320</dim>
					<dim>320</dim>
					<dim>1</dim>
					<dim>1</dim>
				</port>
			</input>
			<output>
				<port id="1" precision="FP32">
					<dim>320</dim>
					<dim>320</dim>
					<dim>1</dim>
					<dim>1</dim>
				</port>
			</output>
		</layer>
		<layer id="274" name="__module.down_blocks.0.attentions.0.proj_out/aten::_convolution/Convolution" type="Convolution" version="opset1">
			<data strides="1, 1" dilations="1, 1" pads_begin="0, 0" pads_end="0, 0" auto_pad="explicit" />
			<input>
				<port id="0" precision="FP32">
					<dim>2</dim>
					<dim>320</dim>
					<dim>64</dim>
					<dim>64</dim>
				</port>
				<port id="1" precision="FP32">
					<dim>320</dim>
					<dim>320</dim>
					<dim>1</dim>
					<dim>1</dim>
				</port>
			</input>
			<output>
				<port id="2" precision="FP32">
					<dim>2</dim>
					<dim>320</dim>
					<dim>64</dim>
					<dim>64</dim>
				</port>
			</output>
		</layer>
		<layer id="275" name="__module.down_blocks.0.attentions.0.proj_out/aten::_convolution/Reshape_compressed" type="Const" version="opset1">
			<data element_type="f16" shape="1, 320, 1, 1" offset="13727252" size="640" />
			<output>
				<port id="0" precision="FP16">
					<dim>1</dim>
					<dim>320</dim>
					<dim>1</dim>
					<dim>1</dim>
				</port>
			</output>
		</layer>
		<layer id="276" name="__module.down_blocks.0.attentions.0.proj_out/aten::_convolution/Reshape" type="Convert" version="opset1">
			<data destination_type="f32" />
			<rt_info>
				<attribute name="decompression" version="0" />
			</rt_info>
			<input>
				<port id="0" precision="FP16">
					<dim>1</dim>
					<dim>320</dim>
					<dim>1</dim>
					<dim>1</dim>
				</port>
			</input>
			<output>
				<port id="1" precision="FP32">
					<dim>1</dim>
					<dim>320</dim>
					<dim>1</dim>
					<dim>1</dim>
				</port>
			</output>
		</layer>
		<layer id="277" name="__module.down_blocks.0.attentions.0.proj_out/aten::_convolution/Add" type="Add" version="opset1">
			<data auto_broadcast="numpy" />
			<input>
				<port id="0" precision="FP32">
					<dim>2</dim>
					<dim>320</dim>
					<dim>64</dim>
					<dim>64</dim>
				</port>
				<port id="1" precision="FP32">
					<dim>1</dim>
					<dim>320</dim>
					<dim>1</dim>
					<dim>1</dim>
				</port>
			</input>
			<output>
				<port id="2" precision="FP32" names="353,hidden_states.37">
					<dim>2</dim>
					<dim>320</dim>
					<dim>64</dim>
					<dim>64</dim>
				</port>
			</output>
		</layer>
		<layer id="278" name="__module.down_blocks.0.attentions.0/aten::add/Add" type="Add" version="opset1">
			<data auto_broadcast="numpy" />
			<input>
				<port id="0" precision="FP32">
					<dim>2</dim>
					<dim>320</dim>
					<dim>64</dim>
					<dim>64</dim>
				</port>
				<port id="1" precision="FP32">
					<dim>2</dim>
					<dim>320</dim>
					<dim>64</dim>
					<dim>64</dim>
				</port>
			</input>
			<output>
				<port id="2" precision="FP32" names="354,55,input.41">
					<dim>2</dim>
					<dim>320</dim>
					<dim>64</dim>
					<dim>64</dim>
				</port>
			</output>
		</layer>
		<layer id="279" name="__module.down_blocks.0.resnets.1.norm1/aten::group_norm/Constant" type="Const" version="opset1">
			<data element_type="i32" shape="3" offset="23680" size="12" />
			<rt_info>
				<attribute name="precise" version="0" />
			</rt_info>
			<output>
				<port id="0" precision="I32">
					<dim>3</dim>
				</port>
			</output>
		</layer>
		<layer id="280" name="__module.down_blocks.0.resnets.1.norm1/aten::group_norm/Reshape" type="Reshape" version="opset1">
			<data special_zero="true" />
			<input>
				<port id="0" precision="FP32">
					<dim>2</dim>
					<dim>320</dim>
					<dim>64</dim>
					<dim>64</dim>
				</port>
				<port id="1" precision="I32">
					<dim>3</dim>
				</port>
			</input>
			<output>
				<port id="2" precision="FP32">
					<dim>2</dim>
					<dim>32</dim>
					<dim>40960</dim>
				</port>
			</output>
		</layer>
		<layer id="281" name="__module.down_blocks.0.resnets.1.norm1/aten::group_norm/Constant_1" type="Const" version="opset1">
			<data element_type="i32" shape="1" offset="23692" size="4" />
			<output>
				<port id="0" precision="I32">
					<dim>1</dim>
				</port>
			</output>
		</layer>
		<layer id="282" name="__module.down_blocks.0.resnets.1.norm1/aten::group_norm/MVN" type="MVN" version="opset6">
			<data eps="9.9999997473787516e-06" normalize_variance="true" eps_mode="INSIDE_SQRT" />
			<input>
				<port id="0" precision="FP32">
					<dim>2</dim>
					<dim>32</dim>
					<dim>40960</dim>
				</port>
				<port id="1" precision="I32">
					<dim>1</dim>
				</port>
			</input>
			<output>
				<port id="2" precision="FP32">
					<dim>2</dim>
					<dim>32</dim>
					<dim>40960</dim>
				</port>
			</output>
		</layer>
		<layer id="283" name="__module.down_blocks.0.resnets.1.norm1/aten::group_norm/ShapeOf" type="Const" version="opset1">
			<data element_type="i32" shape="4" offset="23696" size="16" />
			<rt_info>
				<attribute name="precise" version="0" />
			</rt_info>
			<output>
				<port id="0" precision="I32">
					<dim>4</dim>
				</port>
			</output>
		</layer>
		<layer id="284" name="__module.down_blocks.0.resnets.1.norm1/aten::group_norm/Reshape_1" type="Reshape" version="opset1">
			<data special_zero="true" />
			<input>
				<port id="0" precision="FP32">
					<dim>2</dim>
					<dim>32</dim>
					<dim>40960</dim>
				</port>
				<port id="1" precision="I32">
					<dim>4</dim>
				</port>
			</input>
			<output>
				<port id="2" precision="FP32">
					<dim>2</dim>
					<dim>320</dim>
					<dim>64</dim>
					<dim>64</dim>
				</port>
			</output>
		</layer>
		<layer id="285" name="Constant_142585_compressed" type="Const" version="opset1">
			<data element_type="f16" shape="1, 320, 1, 1" offset="13727892" size="640" />
			<output>
				<port id="0" precision="FP16">
					<dim>1</dim>
					<dim>320</dim>
					<dim>1</dim>
					<dim>1</dim>
				</port>
			</output>
		</layer>
		<layer id="286" name="Constant_142585" type="Convert" version="opset1">
			<data destination_type="f32" />
			<rt_info>
				<attribute name="decompression" version="0" />
			</rt_info>
			<input>
				<port id="0" precision="FP16">
					<dim>1</dim>
					<dim>320</dim>
					<dim>1</dim>
					<dim>1</dim>
				</port>
			</input>
			<output>
				<port id="1" precision="FP32">
					<dim>1</dim>
					<dim>320</dim>
					<dim>1</dim>
					<dim>1</dim>
				</port>
			</output>
		</layer>
		<layer id="287" name="__module.down_blocks.0.resnets.1.norm1/aten::group_norm/Multiply" type="Multiply" version="opset1">
			<data auto_broadcast="numpy" />
			<input>
				<port id="0" precision="FP32">
					<dim>2</dim>
					<dim>320</dim>
					<dim>64</dim>
					<dim>64</dim>
				</port>
				<port id="1" precision="FP32">
					<dim>1</dim>
					<dim>320</dim>
					<dim>1</dim>
					<dim>1</dim>
				</port>
			</input>
			<output>
				<port id="2" precision="FP32">
					<dim>2</dim>
					<dim>320</dim>
					<dim>64</dim>
					<dim>64</dim>
				</port>
			</output>
		</layer>
		<layer id="288" name="Constant_142586_compressed" type="Const" version="opset1">
			<data element_type="f16" shape="1, 320, 1, 1" offset="13728532" size="640" />
			<output>
				<port id="0" precision="FP16">
					<dim>1</dim>
					<dim>320</dim>
					<dim>1</dim>
					<dim>1</dim>
				</port>
			</output>
		</layer>
		<layer id="289" name="Constant_142586" type="Convert" version="opset1">
			<data destination_type="f32" />
			<rt_info>
				<attribute name="decompression" version="0" />
			</rt_info>
			<input>
				<port id="0" precision="FP16">
					<dim>1</dim>
					<dim>320</dim>
					<dim>1</dim>
					<dim>1</dim>
				</port>
			</input>
			<output>
				<port id="1" precision="FP32">
					<dim>1</dim>
					<dim>320</dim>
					<dim>1</dim>
					<dim>1</dim>
				</port>
			</output>
		</layer>
		<layer id="290" name="__module.down_blocks.0.resnets.1.norm1/aten::group_norm/Add" type="Add" version="opset1">
			<data auto_broadcast="numpy" />
			<input>
				<port id="0" precision="FP32">
					<dim>2</dim>
					<dim>320</dim>
					<dim>64</dim>
					<dim>64</dim>
				</port>
				<port id="1" precision="FP32">
					<dim>1</dim>
					<dim>320</dim>
					<dim>1</dim>
					<dim>1</dim>
				</port>
			</input>
			<output>
				<port id="2" precision="FP32" names="363,input.43">
					<dim>2</dim>
					<dim>320</dim>
					<dim>64</dim>
					<dim>64</dim>
				</port>
			</output>
		</layer>
		<layer id="291" name="__module.conv_act/aten::silu/Swish_4" type="Swish" version="opset4">
			<input>
				<port id="0" precision="FP32">
					<dim>2</dim>
					<dim>320</dim>
					<dim>64</dim>
					<dim>64</dim>
				</port>
			</input>
			<output>
				<port id="1" precision="FP32" names="364,hidden_states.39">
					<dim>2</dim>
					<dim>320</dim>
					<dim>64</dim>
					<dim>64</dim>
				</port>
			</output>
		</layer>
		<layer id="292" name="Constant_34587_compressed" type="Const" version="opset1">
			<data element_type="f16" shape="320, 320, 3, 3" offset="13729172" size="1843200" />
			<output>
				<port id="0" precision="FP16" names="366,weight.273">
					<dim>320</dim>
					<dim>320</dim>
					<dim>3</dim>
					<dim>3</dim>
				</port>
			</output>
		</layer>
		<layer id="293" name="Constant_34587" type="Convert" version="opset1">
			<data destination_type="f32" />
			<rt_info>
				<attribute name="decompression" version="0" />
			</rt_info>
			<input>
				<port id="0" precision="FP16">
					<dim>320</dim>
					<dim>320</dim>
					<dim>3</dim>
					<dim>3</dim>
				</port>
			</input>
			<output>
				<port id="1" precision="FP32">
					<dim>320</dim>
					<dim>320</dim>
					<dim>3</dim>
					<dim>3</dim>
				</port>
			</output>
		</layer>
		<layer id="294" name="__module.down_blocks.0.resnets.1.conv1/aten::_convolution/Convolution" type="Convolution" version="opset1">
			<data strides="1, 1" dilations="1, 1" pads_begin="1, 1" pads_end="1, 1" auto_pad="explicit" />
			<input>
				<port id="0" precision="FP32">
					<dim>2</dim>
					<dim>320</dim>
					<dim>64</dim>
					<dim>64</dim>
				</port>
				<port id="1" precision="FP32">
					<dim>320</dim>
					<dim>320</dim>
					<dim>3</dim>
					<dim>3</dim>
				</port>
			</input>
			<output>
				<port id="2" precision="FP32">
					<dim>2</dim>
					<dim>320</dim>
					<dim>64</dim>
					<dim>64</dim>
				</port>
			</output>
		</layer>
		<layer id="295" name="__module.down_blocks.0.resnets.1.conv1/aten::_convolution/Reshape_compressed" type="Const" version="opset1">
			<data element_type="f16" shape="1, 320, 1, 1" offset="15572372" size="640" />
			<output>
				<port id="0" precision="FP16">
					<dim>1</dim>
					<dim>320</dim>
					<dim>1</dim>
					<dim>1</dim>
				</port>
			</output>
		</layer>
		<layer id="296" name="__module.down_blocks.0.resnets.1.conv1/aten::_convolution/Reshape" type="Convert" version="opset1">
			<data destination_type="f32" />
			<rt_info>
				<attribute name="decompression" version="0" />
			</rt_info>
			<input>
				<port id="0" precision="FP16">
					<dim>1</dim>
					<dim>320</dim>
					<dim>1</dim>
					<dim>1</dim>
				</port>
			</input>
			<output>
				<port id="1" precision="FP32">
					<dim>1</dim>
					<dim>320</dim>
					<dim>1</dim>
					<dim>1</dim>
				</port>
			</output>
		</layer>
		<layer id="297" name="__module.down_blocks.0.resnets.1.conv1/aten::_convolution/Add" type="Add" version="opset1">
			<data auto_broadcast="numpy" />
			<input>
				<port id="0" precision="FP32">
					<dim>2</dim>
					<dim>320</dim>
					<dim>64</dim>
					<dim>64</dim>
				</port>
				<port id="1" precision="FP32">
					<dim>1</dim>
					<dim>320</dim>
					<dim>1</dim>
					<dim>1</dim>
				</port>
			</input>
			<output>
				<port id="2" precision="FP32" names="371,hidden_states.41">
					<dim>2</dim>
					<dim>320</dim>
					<dim>64</dim>
					<dim>64</dim>
				</port>
			</output>
		</layer>
		<layer id="298" name="__module.conv_act/aten::silu/Swish_5" type="Swish" version="opset4">
			<input>
				<port id="0" precision="FP32">
					<dim>2</dim>
					<dim>1280</dim>
				</port>
			</input>
			<output>
				<port id="1" precision="FP32" names="372,input.45">
					<dim>2</dim>
					<dim>1280</dim>
				</port>
			</output>
		</layer>
		<layer id="299" name="Constant_34631_compressed" type="Const" version="opset1">
			<data element_type="f16" shape="320, 1280" offset="15573012" size="819200" />
			<output>
				<port id="0" precision="FP16" names="374,weight.275">
					<dim>320</dim>
					<dim>1280</dim>
				</port>
			</output>
		</layer>
		<layer id="300" name="Constant_34631" type="Convert" version="opset1">
			<data destination_type="f32" />
			<rt_info>
				<attribute name="decompression" version="0" />
			</rt_info>
			<input>
				<port id="0" precision="FP16">
					<dim>320</dim>
					<dim>1280</dim>
				</port>
			</input>
			<output>
				<port id="1" precision="FP32">
					<dim>320</dim>
					<dim>1280</dim>
				</port>
			</output>
		</layer>
		<layer id="301" name="__module.down_blocks.0.resnets.1.time_emb_proj/aten::linear/MatMul" type="MatMul" version="opset1">
			<data transpose_a="false" transpose_b="true" />
			<input>
				<port id="0" precision="FP32">
					<dim>2</dim>
					<dim>1280</dim>
				</port>
				<port id="1" precision="FP32">
					<dim>320</dim>
					<dim>1280</dim>
				</port>
			</input>
			<output>
				<port id="2" precision="FP32">
					<dim>2</dim>
					<dim>320</dim>
				</port>
			</output>
		</layer>
		<layer id="302" name="Constant_142587_compressed" type="Const" version="opset1">
			<data element_type="f16" shape="1, 320" offset="16392212" size="640" />
			<output>
				<port id="0" precision="FP16">
					<dim>1</dim>
					<dim>320</dim>
				</port>
			</output>
		</layer>
		<layer id="303" name="Constant_142587" type="Convert" version="opset1">
			<data destination_type="f32" />
			<rt_info>
				<attribute name="decompression" version="0" />
			</rt_info>
			<input>
				<port id="0" precision="FP16">
					<dim>1</dim>
					<dim>320</dim>
				</port>
			</input>
			<output>
				<port id="1" precision="FP32">
					<dim>1</dim>
					<dim>320</dim>
				</port>
			</output>
		</layer>
		<layer id="304" name="__module.down_blocks.0.resnets.1.time_emb_proj/aten::linear/Add" type="Add" version="opset1">
			<data auto_broadcast="numpy" />
			<input>
				<port id="0" precision="FP32">
					<dim>2</dim>
					<dim>320</dim>
				</port>
				<port id="1" precision="FP32">
					<dim>1</dim>
					<dim>320</dim>
				</port>
			</input>
			<output>
				<port id="2" precision="FP32" names="375">
					<dim>2</dim>
					<dim>320</dim>
				</port>
			</output>
		</layer>
		<layer id="305" name="__module.down_blocks.0.resnets.1/aten::slice/Unsqueeze" type="Const" version="opset1">
			<data element_type="i32" shape="1" offset="1868832" size="4" />
			<rt_info>
				<attribute name="precise" version="0" />
			</rt_info>
			<output>
				<port id="0" precision="I32">
					<dim>1</dim>
				</port>
			</output>
		</layer>
		<layer id="306" name="__module.down_blocks.0.resnets.1/aten::slice/Unsqueeze_1" type="Const" version="opset1">
			<data element_type="i64" shape="1" offset="1868836" size="8" />
			<rt_info>
				<attribute name="precise" version="0" />
			</rt_info>
			<output>
				<port id="0" precision="I64">
					<dim>1</dim>
				</port>
			</output>
		</layer>
		<layer id="307" name="__module.down_blocks.0.resnets.1/aten::slice/Unsqueeze_2" type="Const" version="opset1">
			<data element_type="i32" shape="1" offset="1868844" size="4" />
			<rt_info>
				<attribute name="precise" version="0" />
			</rt_info>
			<output>
				<port id="0" precision="I32">
					<dim>1</dim>
				</port>
			</output>
		</layer>
		<layer id="308" name="__module.down_blocks.0.resnets.1/aten::slice/Slice" type="StridedSlice" version="opset1">
			<data begin_mask="0" end_mask="0" new_axis_mask="" shrink_axis_mask="" ellipsis_mask="" />
			<input>
				<port id="0" precision="FP32">
					<dim>2</dim>
					<dim>320</dim>
				</port>
				<port id="1" precision="I32">
					<dim>1</dim>
				</port>
				<port id="2" precision="I64">
					<dim>1</dim>
				</port>
				<port id="3" precision="I32">
					<dim>1</dim>
				</port>
			</input>
			<output>
				<port id="4" precision="FP32" names="376">
					<dim>2</dim>
					<dim>320</dim>
				</port>
			</output>
		</layer>
		<layer id="309" name="Constant_136736" type="Const" version="opset1">
			<data element_type="i32" shape="2" offset="1869200" size="8" />
			<rt_info>
				<attribute name="precise" version="0" />
			</rt_info>
			<output>
				<port id="0" precision="I32">
					<dim>2</dim>
				</port>
			</output>
		</layer>
		<layer id="310" name="Constant_136739" type="Const" version="opset1">
			<data element_type="i64" shape="2" offset="1869176" size="16" />
			<rt_info>
				<attribute name="precise" version="0" />
			</rt_info>
			<output>
				<port id="0" precision="I64">
					<dim>2</dim>
				</port>
			</output>
		</layer>
		<layer id="311" name="Constant_136742" type="Const" version="opset1">
			<data element_type="i32" shape="2" offset="1869192" size="8" />
			<rt_info>
				<attribute name="precise" version="0" />
			</rt_info>
			<output>
				<port id="0" precision="I32">
					<dim>2</dim>
				</port>
			</output>
		</layer>
		<layer id="312" name="__module.down_blocks.0.resnets.1/aten::slice/Slice_1" type="StridedSlice" version="opset1">
			<data begin_mask="1, 0" end_mask="1, 0" new_axis_mask="" shrink_axis_mask="" ellipsis_mask="" />
			<input>
				<port id="0" precision="FP32">
					<dim>2</dim>
					<dim>320</dim>
				</port>
				<port id="1" precision="I32">
					<dim>2</dim>
				</port>
				<port id="2" precision="I64">
					<dim>2</dim>
				</port>
				<port id="3" precision="I32">
					<dim>2</dim>
				</port>
			</input>
			<output>
				<port id="4" precision="FP32" names="377">
					<dim>2</dim>
					<dim>320</dim>
				</port>
			</output>
		</layer>
		<layer id="313" name="__module.down_blocks.0.resnets.1/aten::unsqueeze/Unsqueeze" type="Unsqueeze" version="opset1">
			<input>
				<port id="0" precision="FP32">
					<dim>2</dim>
					<dim>320</dim>
				</port>
				<port id="1" precision="I32" />
			</input>
			<output>
				<port id="2" precision="FP32" names="378">
					<dim>2</dim>
					<dim>320</dim>
					<dim>1</dim>
				</port>
			</output>
		</layer>
		<layer id="314" name="__module.down_blocks.0.resnets.1/aten::unsqueeze/Unsqueeze_1" type="Unsqueeze" version="opset1">
			<input>
				<port id="0" precision="FP32">
					<dim>2</dim>
					<dim>320</dim>
					<dim>1</dim>
				</port>
				<port id="1" precision="I32" />
			</input>
			<output>
				<port id="2" precision="FP32" names="379,temb.3">
					<dim>2</dim>
					<dim>320</dim>
					<dim>1</dim>
					<dim>1</dim>
				</port>
			</output>
		</layer>
		<layer id="315" name="__module.down_blocks.0.resnets.1/aten::add/Add" type="Add" version="opset1">
			<data auto_broadcast="numpy" />
			<input>
				<port id="0" precision="FP32">
					<dim>2</dim>
					<dim>320</dim>
					<dim>64</dim>
					<dim>64</dim>
				</port>
				<port id="1" precision="FP32">
					<dim>2</dim>
					<dim>320</dim>
					<dim>1</dim>
					<dim>1</dim>
				</port>
			</input>
			<output>
				<port id="2" precision="FP32" names="380,input.47">
					<dim>2</dim>
					<dim>320</dim>
					<dim>64</dim>
					<dim>64</dim>
				</port>
			</output>
		</layer>
		<layer id="316" name="__module.down_blocks.0.resnets.1.norm2/aten::group_norm/Constant" type="Const" version="opset1">
			<data element_type="i32" shape="3" offset="23680" size="12" />
			<rt_info>
				<attribute name="precise" version="0" />
			</rt_info>
			<output>
				<port id="0" precision="I32">
					<dim>3</dim>
				</port>
			</output>
		</layer>
		<layer id="317" name="__module.down_blocks.0.resnets.1.norm2/aten::group_norm/Reshape" type="Reshape" version="opset1">
			<data special_zero="true" />
			<input>
				<port id="0" precision="FP32">
					<dim>2</dim>
					<dim>320</dim>
					<dim>64</dim>
					<dim>64</dim>
				</port>
				<port id="1" precision="I32">
					<dim>3</dim>
				</port>
			</input>
			<output>
				<port id="2" precision="FP32">
					<dim>2</dim>
					<dim>32</dim>
					<dim>40960</dim>
				</port>
			</output>
		</layer>
		<layer id="318" name="__module.down_blocks.0.resnets.1.norm2/aten::group_norm/Constant_1" type="Const" version="opset1">
			<data element_type="i32" shape="1" offset="23692" size="4" />
			<output>
				<port id="0" precision="I32">
					<dim>1</dim>
				</port>
			</output>
		</layer>
		<layer id="319" name="__module.down_blocks.0.resnets.1.norm2/aten::group_norm/MVN" type="MVN" version="opset6">
			<data eps="9.9999997473787516e-06" normalize_variance="true" eps_mode="INSIDE_SQRT" />
			<input>
				<port id="0" precision="FP32">
					<dim>2</dim>
					<dim>32</dim>
					<dim>40960</dim>
				</port>
				<port id="1" precision="I32">
					<dim>1</dim>
				</port>
			</input>
			<output>
				<port id="2" precision="FP32">
					<dim>2</dim>
					<dim>32</dim>
					<dim>40960</dim>
				</port>
			</output>
		</layer>
		<layer id="320" name="__module.down_blocks.0.resnets.1.norm2/aten::group_norm/ShapeOf" type="ShapeOf" version="opset3">
			<data output_type="i32" />
			<input>
				<port id="0" precision="FP32">
					<dim>2</dim>
					<dim>320</dim>
					<dim>64</dim>
					<dim>64</dim>
				</port>
			</input>
			<output>
				<port id="1" precision="I32">
					<dim>4</dim>
				</port>
			</output>
		</layer>
		<layer id="321" name="__module.down_blocks.0.resnets.1.norm2/aten::group_norm/Reshape_1" type="Reshape" version="opset1">
			<data special_zero="true" />
			<input>
				<port id="0" precision="FP32">
					<dim>2</dim>
					<dim>32</dim>
					<dim>40960</dim>
				</port>
				<port id="1" precision="I32">
					<dim>4</dim>
				</port>
			</input>
			<output>
				<port id="2" precision="FP32">
					<dim>2</dim>
					<dim>320</dim>
					<dim>64</dim>
					<dim>64</dim>
				</port>
			</output>
		</layer>
		<layer id="322" name="Constant_142588_compressed" type="Const" version="opset1">
			<data element_type="f16" shape="1, 320, 1, 1" offset="16392852" size="640" />
			<output>
				<port id="0" precision="FP16">
					<dim>1</dim>
					<dim>320</dim>
					<dim>1</dim>
					<dim>1</dim>
				</port>
			</output>
		</layer>
		<layer id="323" name="Constant_142588" type="Convert" version="opset1">
			<data destination_type="f32" />
			<rt_info>
				<attribute name="decompression" version="0" />
			</rt_info>
			<input>
				<port id="0" precision="FP16">
					<dim>1</dim>
					<dim>320</dim>
					<dim>1</dim>
					<dim>1</dim>
				</port>
			</input>
			<output>
				<port id="1" precision="FP32">
					<dim>1</dim>
					<dim>320</dim>
					<dim>1</dim>
					<dim>1</dim>
				</port>
			</output>
		</layer>
		<layer id="324" name="__module.down_blocks.0.resnets.1.norm2/aten::group_norm/Multiply" type="Multiply" version="opset1">
			<data auto_broadcast="numpy" />
			<input>
				<port id="0" precision="FP32">
					<dim>2</dim>
					<dim>320</dim>
					<dim>64</dim>
					<dim>64</dim>
				</port>
				<port id="1" precision="FP32">
					<dim>1</dim>
					<dim>320</dim>
					<dim>1</dim>
					<dim>1</dim>
				</port>
			</input>
			<output>
				<port id="2" precision="FP32">
					<dim>2</dim>
					<dim>320</dim>
					<dim>64</dim>
					<dim>64</dim>
				</port>
			</output>
		</layer>
		<layer id="325" name="Constant_142589_compressed" type="Const" version="opset1">
			<data element_type="f16" shape="1, 320, 1, 1" offset="16393492" size="640" />
			<output>
				<port id="0" precision="FP16">
					<dim>1</dim>
					<dim>320</dim>
					<dim>1</dim>
					<dim>1</dim>
				</port>
			</output>
		</layer>
		<layer id="326" name="Constant_142589" type="Convert" version="opset1">
			<data destination_type="f32" />
			<rt_info>
				<attribute name="decompression" version="0" />
			</rt_info>
			<input>
				<port id="0" precision="FP16">
					<dim>1</dim>
					<dim>320</dim>
					<dim>1</dim>
					<dim>1</dim>
				</port>
			</input>
			<output>
				<port id="1" precision="FP32">
					<dim>1</dim>
					<dim>320</dim>
					<dim>1</dim>
					<dim>1</dim>
				</port>
			</output>
		</layer>
		<layer id="327" name="__module.down_blocks.0.resnets.1.norm2/aten::group_norm/Add" type="Add" version="opset1">
			<data auto_broadcast="numpy" />
			<input>
				<port id="0" precision="FP32">
					<dim>2</dim>
					<dim>320</dim>
					<dim>64</dim>
					<dim>64</dim>
				</port>
				<port id="1" precision="FP32">
					<dim>1</dim>
					<dim>320</dim>
					<dim>1</dim>
					<dim>1</dim>
				</port>
			</input>
			<output>
				<port id="2" precision="FP32" names="383,input.49">
					<dim>2</dim>
					<dim>320</dim>
					<dim>64</dim>
					<dim>64</dim>
				</port>
			</output>
		</layer>
		<layer id="328" name="__module.conv_act/aten::silu/Swish_6" type="Swish" version="opset4">
			<input>
				<port id="0" precision="FP32">
					<dim>2</dim>
					<dim>320</dim>
					<dim>64</dim>
					<dim>64</dim>
				</port>
			</input>
			<output>
				<port id="1" precision="FP32" names="384,input.51">
					<dim>2</dim>
					<dim>320</dim>
					<dim>64</dim>
					<dim>64</dim>
				</port>
			</output>
		</layer>
		<layer id="329" name="Constant_34849_compressed" type="Const" version="opset1">
			<data element_type="f16" shape="320, 320, 3, 3" offset="16394132" size="1843200" />
			<output>
				<port id="0" precision="FP16" names="387,weight.279">
					<dim>320</dim>
					<dim>320</dim>
					<dim>3</dim>
					<dim>3</dim>
				</port>
			</output>
		</layer>
		<layer id="330" name="Constant_34849" type="Convert" version="opset1">
			<data destination_type="f32" />
			<rt_info>
				<attribute name="decompression" version="0" />
			</rt_info>
			<input>
				<port id="0" precision="FP16">
					<dim>320</dim>
					<dim>320</dim>
					<dim>3</dim>
					<dim>3</dim>
				</port>
			</input>
			<output>
				<port id="1" precision="FP32">
					<dim>320</dim>
					<dim>320</dim>
					<dim>3</dim>
					<dim>3</dim>
				</port>
			</output>
		</layer>
		<layer id="331" name="__module.down_blocks.0.resnets.1.conv2/aten::_convolution/Convolution" type="Convolution" version="opset1">
			<data strides="1, 1" dilations="1, 1" pads_begin="1, 1" pads_end="1, 1" auto_pad="explicit" />
			<input>
				<port id="0" precision="FP32">
					<dim>2</dim>
					<dim>320</dim>
					<dim>64</dim>
					<dim>64</dim>
				</port>
				<port id="1" precision="FP32">
					<dim>320</dim>
					<dim>320</dim>
					<dim>3</dim>
					<dim>3</dim>
				</port>
			</input>
			<output>
				<port id="2" precision="FP32">
					<dim>2</dim>
					<dim>320</dim>
					<dim>64</dim>
					<dim>64</dim>
				</port>
			</output>
		</layer>
		<layer id="332" name="__module.down_blocks.0.resnets.1.conv2/aten::_convolution/Reshape_compressed" type="Const" version="opset1">
			<data element_type="f16" shape="1, 320, 1, 1" offset="18237332" size="640" />
			<output>
				<port id="0" precision="FP16">
					<dim>1</dim>
					<dim>320</dim>
					<dim>1</dim>
					<dim>1</dim>
				</port>
			</output>
		</layer>
		<layer id="333" name="__module.down_blocks.0.resnets.1.conv2/aten::_convolution/Reshape" type="Convert" version="opset1">
			<data destination_type="f32" />
			<rt_info>
				<attribute name="decompression" version="0" />
			</rt_info>
			<input>
				<port id="0" precision="FP16">
					<dim>1</dim>
					<dim>320</dim>
					<dim>1</dim>
					<dim>1</dim>
				</port>
			</input>
			<output>
				<port id="1" precision="FP32">
					<dim>1</dim>
					<dim>320</dim>
					<dim>1</dim>
					<dim>1</dim>
				</port>
			</output>
		</layer>
		<layer id="334" name="__module.down_blocks.0.resnets.1.conv2/aten::_convolution/Add" type="Add" version="opset1">
			<data auto_broadcast="numpy" />
			<input>
				<port id="0" precision="FP32">
					<dim>2</dim>
					<dim>320</dim>
					<dim>64</dim>
					<dim>64</dim>
				</port>
				<port id="1" precision="FP32">
					<dim>1</dim>
					<dim>320</dim>
					<dim>1</dim>
					<dim>1</dim>
				</port>
			</input>
			<output>
				<port id="2" precision="FP32" names="392,hidden_states.45">
					<dim>2</dim>
					<dim>320</dim>
					<dim>64</dim>
					<dim>64</dim>
				</port>
			</output>
		</layer>
		<layer id="335" name="__module.down_blocks.0.resnets.1/aten::add/Add_1" type="Add" version="opset1">
			<data auto_broadcast="numpy" />
			<input>
				<port id="0" precision="FP32">
					<dim>2</dim>
					<dim>320</dim>
					<dim>64</dim>
					<dim>64</dim>
				</port>
				<port id="1" precision="FP32">
					<dim>2</dim>
					<dim>320</dim>
					<dim>64</dim>
					<dim>64</dim>
				</port>
			</input>
			<output>
				<port id="2" precision="FP32" names="393,394,hidden_states.47">
					<dim>2</dim>
					<dim>320</dim>
					<dim>64</dim>
					<dim>64</dim>
				</port>
			</output>
		</layer>
		<layer id="336" name="__module.down_blocks.0.attentions.1.norm/aten::group_norm/Constant" type="Const" version="opset1">
			<data element_type="i32" shape="3" offset="23680" size="12" />
			<rt_info>
				<attribute name="precise" version="0" />
			</rt_info>
			<output>
				<port id="0" precision="I32">
					<dim>3</dim>
				</port>
			</output>
		</layer>
		<layer id="337" name="__module.down_blocks.0.attentions.1.norm/aten::group_norm/Reshape" type="Reshape" version="opset1">
			<data special_zero="true" />
			<input>
				<port id="0" precision="FP32">
					<dim>2</dim>
					<dim>320</dim>
					<dim>64</dim>
					<dim>64</dim>
				</port>
				<port id="1" precision="I32">
					<dim>3</dim>
				</port>
			</input>
			<output>
				<port id="2" precision="FP32">
					<dim>2</dim>
					<dim>32</dim>
					<dim>40960</dim>
				</port>
			</output>
		</layer>
		<layer id="338" name="__module.down_blocks.0.attentions.1.norm/aten::group_norm/Constant_1" type="Const" version="opset1">
			<data element_type="i32" shape="1" offset="23692" size="4" />
			<output>
				<port id="0" precision="I32">
					<dim>1</dim>
				</port>
			</output>
		</layer>
		<layer id="339" name="__module.down_blocks.0.attentions.1.norm/aten::group_norm/MVN" type="MVN" version="opset6">
			<data eps="9.9999999747524271e-07" normalize_variance="true" eps_mode="INSIDE_SQRT" />
			<input>
				<port id="0" precision="FP32">
					<dim>2</dim>
					<dim>32</dim>
					<dim>40960</dim>
				</port>
				<port id="1" precision="I32">
					<dim>1</dim>
				</port>
			</input>
			<output>
				<port id="2" precision="FP32">
					<dim>2</dim>
					<dim>32</dim>
					<dim>40960</dim>
				</port>
			</output>
		</layer>
		<layer id="340" name="__module.down_blocks.0.attentions.1.norm/aten::group_norm/ShapeOf" type="Const" version="opset1">
			<data element_type="i32" shape="4" offset="23696" size="16" />
			<rt_info>
				<attribute name="precise" version="0" />
			</rt_info>
			<output>
				<port id="0" precision="I32">
					<dim>4</dim>
				</port>
			</output>
		</layer>
		<layer id="341" name="__module.down_blocks.0.attentions.1.norm/aten::group_norm/Reshape_1" type="Reshape" version="opset1">
			<data special_zero="true" />
			<input>
				<port id="0" precision="FP32">
					<dim>2</dim>
					<dim>32</dim>
					<dim>40960</dim>
				</port>
				<port id="1" precision="I32">
					<dim>4</dim>
				</port>
			</input>
			<output>
				<port id="2" precision="FP32">
					<dim>2</dim>
					<dim>320</dim>
					<dim>64</dim>
					<dim>64</dim>
				</port>
			</output>
		</layer>
		<layer id="342" name="Constant_142590_compressed" type="Const" version="opset1">
			<data element_type="f16" shape="1, 320, 1, 1" offset="18237972" size="640" />
			<output>
				<port id="0" precision="FP16">
					<dim>1</dim>
					<dim>320</dim>
					<dim>1</dim>
					<dim>1</dim>
				</port>
			</output>
		</layer>
		<layer id="343" name="Constant_142590" type="Convert" version="opset1">
			<data destination_type="f32" />
			<rt_info>
				<attribute name="decompression" version="0" />
			</rt_info>
			<input>
				<port id="0" precision="FP16">
					<dim>1</dim>
					<dim>320</dim>
					<dim>1</dim>
					<dim>1</dim>
				</port>
			</input>
			<output>
				<port id="1" precision="FP32">
					<dim>1</dim>
					<dim>320</dim>
					<dim>1</dim>
					<dim>1</dim>
				</port>
			</output>
		</layer>
…
		<edge from-layer="3726" from-port="2" to-layer="3745" to-port="0" />
		<edge from-layer="3727" from-port="1" to-layer="3730" to-port="0" />
		<edge from-layer="3728" from-port="0" to-layer="3730" to-port="1" />
		<edge from-layer="3729" from-port="0" to-layer="3730" to-port="2" />
		<edge from-layer="3730" from-port="3" to-layer="3744" to-port="0" />
		<edge from-layer="3730" from-port="3" to-layer="3764" to-port="0" />
		<edge from-layer="3731" from-port="0" to-layer="3744" to-port="1" />
		<edge from-layer="3732" from-port="0" to-layer="3744" to-port="2" />
		<edge from-layer="3733" from-port="0" to-layer="3734" to-port="0" />
		<edge from-layer="3734" from-port="1" to-layer="3735" to-port="1" />
		<edge from-layer="3735" from-port="2" to-layer="3736" to-port="0" />
		<edge from-layer="3735" from-port="2" to-layer="3748" to-port="0" />
		<edge from-layer="3736" from-port="1" to-layer="3738" to-port="0" />
		<edge from-layer="3737" from-port="0" to-layer="3738" to-port="2" />
		<edge from-layer="3738" from-port="3" to-layer="3740" to-port="0" />
		<edge from-layer="3739" from-port="0" to-layer="3740" to-port="1" />
		<edge from-layer="3739" from-port="0" to-layer="3761" to-port="1" />
		<edge from-layer="3739" from-port="0" to-layer="4222" to-port="1" />
		<edge from-layer="3739" from-port="0" to-layer="4243" to-port="1" />
		<edge from-layer="3739" from-port="0" to-layer="4008" to-port="1" />
		<edge from-layer="3739" from-port="0" to-layer="3987" to-port="1" />
		<edge from-layer="3740" from-port="2" to-layer="3741" to-port="0" />
		<edge from-layer="3741" from-port="1" to-layer="3761" to-port="0" />
		<edge from-layer="3741" from-port="1" to-layer="3743" to-port="0" />
		<edge from-layer="3742" from-port="0" to-layer="3743" to-port="1" />
		<edge from-layer="3743" from-port="2" to-layer="3744" to-port="3" />
		<edge from-layer="3744" from-port="4" to-layer="3745" to-port="1" />
		<edge from-layer="3744" from-port="4" to-layer="3754" to-port="1" />
		<edge from-layer="3744" from-port="4" to-layer="3748" to-port="1" />
		<edge from-layer="3745" from-port="2" to-layer="3747" to-port="0" />
		<edge from-layer="3746" from-port="0" to-layer="3747" to-port="1" />
		<edge from-layer="3747" from-port="2" to-layer="3757" to-port="0" />
		<edge from-layer="3748" from-port="2" to-layer="3750" to-port="0" />
		<edge from-layer="3749" from-port="0" to-layer="3750" to-port="1" />
		<edge from-layer="3750" from-port="2" to-layer="3757" to-port="1" />
		<edge from-layer="3751" from-port="0" to-layer="3752" to-port="0" />
		<edge from-layer="3752" from-port="1" to-layer="3753" to-port="1" />
		<edge from-layer="3753" from-port="2" to-layer="3754" to-port="0" />
		<edge from-layer="3754" from-port="2" to-layer="3756" to-port="0" />
		<edge from-layer="3755" from-port="0" to-layer="3756" to-port="1" />
		<edge from-layer="3756" from-port="2" to-layer="3757" to-port="2" />
		<edge from-layer="3757" from-port="3" to-layer="3759" to-port="0" />
		<edge from-layer="3758" from-port="0" to-layer="3759" to-port="1" />
		<edge from-layer="3759" from-port="2" to-layer="3765" to-port="0" />
		<edge from-layer="3760" from-port="0" to-layer="3764" to-port="1" />
		<edge from-layer="3761" from-port="2" to-layer="3763" to-port="0" />
		<edge from-layer="3762" from-port="0" to-layer="3763" to-port="1" />
		<edge from-layer="3763" from-port="2" to-layer="3764" to-port="2" />
		<edge from-layer="3764" from-port="3" to-layer="3765" to-port="1" />
		<edge from-layer="3765" from-port="2" to-layer="3768" to-port="0" />
		<edge from-layer="3766" from-port="0" to-layer="3767" to-port="0" />
		<edge from-layer="3767" from-port="1" to-layer="3768" to-port="1" />
		<edge from-layer="3768" from-port="2" to-layer="3771" to-port="0" />
		<edge from-layer="3769" from-port="0" to-layer="3770" to-port="0" />
		<edge from-layer="3770" from-port="1" to-layer="3771" to-port="1" />
		<edge from-layer="3771" from-port="2" to-layer="3772" to-port="0" />
		<edge from-layer="3772" from-port="2" to-layer="3774" to-port="0" />
		<edge from-layer="3772" from-port="2" to-layer="3813" to-port="1" />
		<edge from-layer="3773" from-port="0" to-layer="3774" to-port="1" />
		<edge from-layer="3774" from-port="2" to-layer="3777" to-port="0" />
		<edge from-layer="3775" from-port="0" to-layer="3776" to-port="0" />
		<edge from-layer="3776" from-port="1" to-layer="3777" to-port="1" />
		<edge from-layer="3777" from-port="2" to-layer="3780" to-port="0" />
		<edge from-layer="3778" from-port="0" to-layer="3779" to-port="0" />
		<edge from-layer="3779" from-port="1" to-layer="3780" to-port="1" />
		<edge from-layer="3780" from-port="2" to-layer="3783" to-port="0" />
		<edge from-layer="3781" from-port="0" to-layer="3782" to-port="0" />
		<edge from-layer="3782" from-port="1" to-layer="3783" to-port="1" />
		<edge from-layer="3783" from-port="2" to-layer="3785" to-port="0" />
		<edge from-layer="3784" from-port="0" to-layer="3785" to-port="1" />
		<edge from-layer="3785" from-port="2" to-layer="3787" to-port="0" />
		<edge from-layer="3786" from-port="0" to-layer="3787" to-port="1" />
		<edge from-layer="3787" from-port="2" to-layer="3802" to-port="0" />
		<edge from-layer="3788" from-port="0" to-layer="3789" to-port="0" />
		<edge from-layer="3789" from-port="1" to-layer="3790" to-port="1" />
		<edge from-layer="3790" from-port="2" to-layer="3792" to-port="0" />
		<edge from-layer="3791" from-port="0" to-layer="3792" to-port="1" />
		<edge from-layer="3792" from-port="2" to-layer="3794" to-port="0" />
		<edge from-layer="3793" from-port="0" to-layer="3794" to-port="1" />
		<edge from-layer="3794" from-port="2" to-layer="3802" to-port="1" />
		<edge from-layer="3795" from-port="0" to-layer="3796" to-port="0" />
		<edge from-layer="3796" from-port="1" to-layer="3797" to-port="1" />
		<edge from-layer="3797" from-port="2" to-layer="3799" to-port="0" />
		<edge from-layer="3798" from-port="0" to-layer="3799" to-port="1" />
		<edge from-layer="3799" from-port="2" to-layer="3801" to-port="0" />
		<edge from-layer="3800" from-port="0" to-layer="3801" to-port="1" />
		<edge from-layer="3801" from-port="2" to-layer="3802" to-port="2" />
		<edge from-layer="3802" from-port="3" to-layer="3804" to-port="0" />
		<edge from-layer="3803" from-port="0" to-layer="3804" to-port="1" />
		<edge from-layer="3804" from-port="2" to-layer="3806" to-port="0" />
		<edge from-layer="3805" from-port="0" to-layer="3806" to-port="1" />
		<edge from-layer="3806" from-port="2" to-layer="3809" to-port="0" />
		<edge from-layer="3807" from-port="0" to-layer="3808" to-port="0" />
		<edge from-layer="3808" from-port="1" to-layer="3809" to-port="1" />
		<edge from-layer="3809" from-port="2" to-layer="3812" to-port="0" />
		<edge from-layer="3810" from-port="0" to-layer="3811" to-port="0" />
		<edge from-layer="3811" from-port="1" to-layer="3812" to-port="1" />
		<edge from-layer="3812" from-port="2" to-layer="3813" to-port="0" />
		<edge from-layer="3813" from-port="2" to-layer="3815" to-port="0" />
		<edge from-layer="3813" from-port="2" to-layer="3850" to-port="1" />
		<edge from-layer="3814" from-port="0" to-layer="3815" to-port="1" />
		<edge from-layer="3815" from-port="2" to-layer="3818" to-port="0" />
		<edge from-layer="3816" from-port="0" to-layer="3817" to-port="0" />
		<edge from-layer="3817" from-port="1" to-layer="3818" to-port="1" />
		<edge from-layer="3818" from-port="2" to-layer="3821" to-port="0" />
		<edge from-layer="3819" from-port="0" to-layer="3820" to-port="0" />
		<edge from-layer="3820" from-port="1" to-layer="3821" to-port="1" />
		<edge from-layer="3821" from-port="2" to-layer="3824" to-port="0" />
		<edge from-layer="3822" from-port="0" to-layer="3823" to-port="0" />
		<edge from-layer="3823" from-port="1" to-layer="3824" to-port="1" />
		<edge from-layer="3824" from-port="2" to-layer="3827" to-port="0" />
		<edge from-layer="3825" from-port="0" to-layer="3826" to-port="0" />
		<edge from-layer="3826" from-port="1" to-layer="3827" to-port="1" />
		<edge from-layer="3827" from-port="2" to-layer="3841" to-port="0" />
		<edge from-layer="3827" from-port="2" to-layer="3829" to-port="0" />
		<edge from-layer="3828" from-port="0" to-layer="4322" to-port="1" />
		<edge from-layer="3828" from-port="0" to-layer="4077" to-port="1" />
		<edge from-layer="3828" from-port="0" to-layer="4087" to-port="1" />
		<edge from-layer="3828" from-port="0" to-layer="4312" to-port="1" />
		<edge from-layer="3828" from-port="0" to-layer="3841" to-port="1" />
		<edge from-layer="3828" from-port="0" to-layer="3831" to-port="1" />
		<edge from-layer="3829" from-port="1" to-layer="3831" to-port="0" />
		<edge from-layer="3830" from-port="0" to-layer="3834" to-port="1" />
		<edge from-layer="3830" from-port="0" to-layer="3831" to-port="2" />
		<edge from-layer="3831" from-port="3" to-layer="3833" to-port="0" />
		<edge from-layer="3831" from-port="3" to-layer="3832" to-port="0" />
		<edge from-layer="3832" from-port="2" to-layer="3836" to-port="0" />
		<edge from-layer="3833" from-port="2" to-layer="3834" to-port="0" />
		<edge from-layer="3834" from-port="2" to-layer="3835" to-port="0" />
		<edge from-layer="3835" from-port="1" to-layer="3836" to-port="1" />
		<edge from-layer="3836" from-port="2" to-layer="3838" to-port="0" />
		<edge from-layer="3837" from-port="0" to-layer="3838" to-port="1" />
		<edge from-layer="3838" from-port="2" to-layer="3840" to-port="0" />
		<edge from-layer="3839" from-port="0" to-layer="3840" to-port="1" />
		<edge from-layer="3840" from-port="2" to-layer="3841" to-port="2" />
		<edge from-layer="3841" from-port="3" to-layer="3843" to-port="0" />
		<edge from-layer="3841" from-port="4" to-layer="3842" to-port="0" />
		<edge from-layer="3842" from-port="1" to-layer="3843" to-port="1" />
		<edge from-layer="3843" from-port="2" to-layer="3846" to-port="0" />
		<edge from-layer="3844" from-port="0" to-layer="3845" to-port="0" />
		<edge from-layer="3845" from-port="1" to-layer="3846" to-port="1" />
		<edge from-layer="3846" from-port="2" to-layer="3849" to-port="0" />
		<edge from-layer="3847" from-port="0" to-layer="3848" to-port="0" />
		<edge from-layer="3848" from-port="1" to-layer="3849" to-port="1" />
		<edge from-layer="3849" from-port="2" to-layer="3850" to-port="0" />
		<edge from-layer="3850" from-port="2" to-layer="3857" to-port="0" />
		<edge from-layer="3851" from-port="0" to-layer="3852" to-port="1" />
		<edge from-layer="3852" from-port="2" to-layer="3856" to-port="1" />
		<edge from-layer="3853" from-port="0" to-layer="3854" to-port="1" />
		<edge from-layer="3854" from-port="2" to-layer="3856" to-port="2" />
		<edge from-layer="3855" from-port="0" to-layer="3856" to-port="3" />
		<edge from-layer="3856" from-port="4" to-layer="3857" to-port="1" />
		<edge from-layer="3857" from-port="2" to-layer="3859" to-port="0" />
		<edge from-layer="3858" from-port="0" to-layer="3859" to-port="1" />
		<edge from-layer="3859" from-port="2" to-layer="3862" to-port="0" />
		<edge from-layer="3860" from-port="0" to-layer="3861" to-port="0" />
		<edge from-layer="3861" from-port="1" to-layer="3862" to-port="1" />
		<edge from-layer="3862" from-port="2" to-layer="3865" to-port="0" />
		<edge from-layer="3863" from-port="0" to-layer="3864" to-port="0" />
		<edge from-layer="3864" from-port="1" to-layer="3865" to-port="1" />
		<edge from-layer="3865" from-port="2" to-layer="3866" to-port="0" />
		<edge from-layer="3866" from-port="2" to-layer="3867" to-port="0" />
		<edge from-layer="3867" from-port="2" to-layer="3878" to-port="0" />
		<edge from-layer="3867" from-port="2" to-layer="3870" to-port="0" />
		<edge from-layer="3867" from-port="2" to-layer="3875" to-port="0" />
		<edge from-layer="3868" from-port="0" to-layer="3869" to-port="0" />
		<edge from-layer="3869" from-port="1" to-layer="3870" to-port="1" />
		<edge from-layer="3870" from-port="2" to-layer="3873" to-port="0" />
		<edge from-layer="3871" from-port="0" to-layer="3872" to-port="0" />
		<edge from-layer="3872" from-port="1" to-layer="3873" to-port="1" />
		<edge from-layer="3873" from-port="2" to-layer="3930" to-port="0" />
		<edge from-layer="3874" from-port="0" to-layer="3875" to-port="1" />
		<edge from-layer="3875" from-port="2" to-layer="3877" to-port="0" />
		<edge from-layer="3876" from-port="0" to-layer="3877" to-port="1" />
		<edge from-layer="3877" from-port="2" to-layer="3879" to-port="0" />
		<edge from-layer="3878" from-port="1" to-layer="3879" to-port="1" />
		<edge from-layer="3879" from-port="2" to-layer="3882" to-port="0" />
		<edge from-layer="3880" from-port="0" to-layer="3881" to-port="0" />
		<edge from-layer="3881" from-port="1" to-layer="3882" to-port="1" />
		<edge from-layer="3882" from-port="2" to-layer="3885" to-port="0" />
		<edge from-layer="3883" from-port="0" to-layer="3884" to-port="0" />
		<edge from-layer="3884" from-port="1" to-layer="3885" to-port="1" />
		<edge from-layer="3885" from-port="2" to-layer="3886" to-port="0" />
		<edge from-layer="3886" from-port="1" to-layer="3889" to-port="0" />
		<edge from-layer="3887" from-port="0" to-layer="3888" to-port="0" />
		<edge from-layer="3888" from-port="1" to-layer="3889" to-port="1" />
		<edge from-layer="3889" from-port="2" to-layer="3892" to-port="0" />
		<edge from-layer="3890" from-port="0" to-layer="3891" to-port="0" />
		<edge from-layer="3891" from-port="1" to-layer="3892" to-port="1" />
		<edge from-layer="3892" from-port="2" to-layer="3910" to-port="0" />
		<edge from-layer="3893" from-port="1" to-layer="3896" to-port="0" />
		<edge from-layer="3894" from-port="0" to-layer="3895" to-port="0" />
		<edge from-layer="3895" from-port="1" to-layer="3896" to-port="1" />
		<edge from-layer="3896" from-port="2" to-layer="3899" to-port="0" />
		<edge from-layer="3897" from-port="0" to-layer="3898" to-port="0" />
		<edge from-layer="3898" from-port="1" to-layer="3899" to-port="1" />
		<edge from-layer="3899" from-port="2" to-layer="3903" to-port="0" />
		<edge from-layer="3900" from-port="0" to-layer="3903" to-port="1" />
		<edge from-layer="3901" from-port="0" to-layer="3903" to-port="2" />
		<edge from-layer="3902" from-port="0" to-layer="3903" to-port="3" />
		<edge from-layer="3903" from-port="4" to-layer="3907" to-port="0" />
		<edge from-layer="3904" from-port="0" to-layer="3907" to-port="1" />
		<edge from-layer="3905" from-port="0" to-layer="3907" to-port="2" />
		<edge from-layer="3906" from-port="0" to-layer="3907" to-port="3" />
		<edge from-layer="3907" from-port="4" to-layer="3908" to-port="0" />
		<edge from-layer="3908" from-port="2" to-layer="3909" to-port="0" />
		<edge from-layer="3909" from-port="2" to-layer="3910" to-port="1" />
		<edge from-layer="3910" from-port="2" to-layer="3915" to-port="0" />
		<edge from-layer="3910" from-port="2" to-layer="3912" to-port="0" />
		<edge from-layer="3911" from-port="0" to-layer="3912" to-port="1" />
		<edge from-layer="3912" from-port="2" to-layer="3914" to-port="0" />
		<edge from-layer="3913" from-port="0" to-layer="3914" to-port="1" />
		<edge from-layer="3914" from-port="2" to-layer="3916" to-port="0" />
		<edge from-layer="3915" from-port="1" to-layer="3916" to-port="1" />
		<edge from-layer="3916" from-port="2" to-layer="3919" to-port="0" />
		<edge from-layer="3917" from-port="0" to-layer="3918" to-port="0" />
		<edge from-layer="3918" from-port="1" to-layer="3919" to-port="1" />
		<edge from-layer="3919" from-port="2" to-layer="3922" to-port="0" />
		<edge from-layer="3920" from-port="0" to-layer="3921" to-port="0" />
		<edge from-layer="3921" from-port="1" to-layer="3922" to-port="1" />
		<edge from-layer="3922" from-port="2" to-layer="3923" to-port="0" />
		<edge from-layer="3923" from-port="1" to-layer="3926" to-port="0" />
		<edge from-layer="3924" from-port="0" to-layer="3925" to-port="0" />
		<edge from-layer="3925" from-port="1" to-layer="3926" to-port="1" />
		<edge from-layer="3926" from-port="2" to-layer="3929" to-port="0" />
		<edge from-layer="3927" from-port="0" to-layer="3928" to-port="0" />
		<edge from-layer="3928" from-port="1" to-layer="3929" to-port="1" />
		<edge from-layer="3929" from-port="2" to-layer="3930" to-port="1" />
		<edge from-layer="3930" from-port="2" to-layer="3932" to-port="0" />
		<edge from-layer="3930" from-port="2" to-layer="4112" to-port="1" />
		<edge from-layer="3930" from-port="2" to-layer="3935" to-port="0" />
		<edge from-layer="3931" from-port="0" to-layer="3932" to-port="1" />
		<edge from-layer="3932" from-port="2" to-layer="3934" to-port="0" />
		<edge from-layer="3933" from-port="0" to-layer="3934" to-port="1" />
		<edge from-layer="3934" from-port="2" to-layer="3936" to-port="0" />
		<edge from-layer="3935" from-port="1" to-layer="3936" to-port="1" />
		<edge from-layer="3935" from-port="1" to-layer="3957" to-port="0" />
		<edge from-layer="3935" from-port="1" to-layer="3955" to-port="0" />
		<edge from-layer="3935" from-port="1" to-layer="3953" to-port="0" />
		<edge from-layer="3936" from-port="2" to-layer="3939" to-port="0" />
		<edge from-layer="3937" from-port="0" to-layer="3938" to-port="0" />
		<edge from-layer="3938" from-port="1" to-layer="3939" to-port="1" />
		<edge from-layer="3939" from-port="2" to-layer="3942" to-port="0" />
		<edge from-layer="3940" from-port="0" to-layer="3941" to-port="0" />
		<edge from-layer="3941" from-port="1" to-layer="3942" to-port="1" />
		<edge from-layer="3942" from-port="2" to-layer="3945" to-port="0" />
		<edge from-layer="3943" from-port="0" to-layer="3944" to-port="0" />
		<edge from-layer="3944" from-port="1" to-layer="3945" to-port="1" />
		<edge from-layer="3945" from-port="2" to-layer="3948" to-port="0" />
		<edge from-layer="3946" from-port="0" to-layer="3947" to-port="0" />
		<edge from-layer="3947" from-port="1" to-layer="3948" to-port="1" />
		<edge from-layer="3948" from-port="2" to-layer="3950" to-port="0" />
		<edge from-layer="3949" from-port="0" to-layer="3950" to-port="1" />
		<edge from-layer="3950" from-port="2" to-layer="3963" to-port="0" />
		<edge from-layer="3951" from-port="0" to-layer="3953" to-port="1" />
		<edge from-layer="3952" from-port="0" to-layer="3953" to-port="2" />
		<edge from-layer="3953" from-port="3" to-layer="3962" to-port="0" />
		<edge from-layer="3953" from-port="3" to-layer="4102" to-port="0" />
		<edge from-layer="3954" from-port="0" to-layer="3955" to-port="2" />
		<edge from-layer="3955" from-port="3" to-layer="3958" to-port="0" />
		<edge from-layer="3955" from-port="3" to-layer="4098" to-port="0" />
		<edge from-layer="3956" from-port="0" to-layer="3957" to-port="2" />
		<edge from-layer="3957" from-port="3" to-layer="4100" to-port="0" />
		<edge from-layer="3957" from-port="3" to-layer="3958" to-port="1" />
		<edge from-layer="3958" from-port="2" to-layer="3960" to-port="0" />
		<edge from-layer="3959" from-port="0" to-layer="3960" to-port="1" />
		<edge from-layer="3960" from-port="2" to-layer="3962" to-port="1" />
		<edge from-layer="3961" from-port="0" to-layer="3962" to-port="2" />
		<edge from-layer="3962" from-port="3" to-layer="3963" to-port="1" />
		<edge from-layer="3963" from-port="2" to-layer="4019" to-port="1" />
		<edge from-layer="3963" from-port="2" to-layer="3965" to-port="0" />
		<edge from-layer="3964" from-port="0" to-layer="3965" to-port="1" />
		<edge from-layer="3965" from-port="2" to-layer="3968" to-port="0" />
		<edge from-layer="3966" from-port="0" to-layer="3967" to-port="0" />
		<edge from-layer="3967" from-port="1" to-layer="3968" to-port="1" />
		<edge from-layer="3968" from-port="2" to-layer="3971" to-port="0" />
		<edge from-layer="3969" from-port="0" to-layer="3970" to-port="0" />
		<edge from-layer="3970" from-port="1" to-layer="3971" to-port="1" />
		<edge from-layer="3971" from-port="2" to-layer="4000" to-port="0" />
		<edge from-layer="3971" from-port="2" to-layer="3974" to-port="0" />
		<edge from-layer="3971" from-port="2" to-layer="3983" to-port="0" />
		<edge from-layer="3971" from-port="2" to-layer="3975" to-port="0" />
		<edge from-layer="3972" from-port="0" to-layer="3973" to-port="0" />
		<edge from-layer="3973" from-port="1" to-layer="3974" to-port="1" />
		<edge from-layer="3974" from-port="2" to-layer="3992" to-port="0" />
		<edge from-layer="3975" from-port="1" to-layer="3978" to-port="0" />
		<edge from-layer="3976" from-port="0" to-layer="3978" to-port="1" />
		<edge from-layer="3977" from-port="0" to-layer="3978" to-port="2" />
		<edge from-layer="3978" from-port="3" to-layer="4011" to-port="0" />
		<edge from-layer="3978" from-port="3" to-layer="3991" to-port="0" />
		<edge from-layer="3979" from-port="0" to-layer="3991" to-port="1" />
		<edge from-layer="3980" from-port="0" to-layer="3991" to-port="2" />
		<edge from-layer="3981" from-port="0" to-layer="3982" to-port="0" />
		<edge from-layer="3982" from-port="1" to-layer="3983" to-port="1" />
		<edge from-layer="3983" from-port="2" to-layer="3984" to-port="0" />
		<edge from-layer="3983" from-port="2" to-layer="3995" to-port="0" />
		<edge from-layer="3984" from-port="1" to-layer="3986" to-port="0" />
		<edge from-layer="3985" from-port="0" to-layer="3986" to-port="2" />
		<edge from-layer="3986" from-port="3" to-layer="3987" to-port="0" />
		<edge from-layer="3987" from-port="2" to-layer="3988" to-port="0" />
		<edge from-layer="3988" from-port="1" to-layer="4008" to-port="0" />
		<edge from-layer="3988" from-port="1" to-layer="3990" to-port="0" />
		<edge from-layer="3989" from-port="0" to-layer="3990" to-port="1" />
		<edge from-layer="3990" from-port="2" to-layer="3991" to-port="3" />
		<edge from-layer="3991" from-port="4" to-layer="3995" to-port="1" />
		<edge from-layer="3991" from-port="4" to-layer="3992" to-port="1" />
		<edge from-layer="3991" from-port="4" to-layer="4001" to-port="1" />
		<edge from-layer="3992" from-port="2" to-layer="3994" to-port="0" />
		<edge from-layer="3993" from-port="0" to-layer="3994" to-port="1" />
		<edge from-layer="3994" from-port="2" to-layer="4004" to-port="0" />
		<edge from-layer="3995" from-port="2" to-layer="3997" to-port="0" />
		<edge from-layer="3996" from-port="0" to-layer="3997" to-port="1" />
		<edge from-layer="3997" from-port="2" to-layer="4004" to-port="1" />
		<edge from-layer="3998" from-port="0" to-layer="3999" to-port="0" />
		<edge from-layer="3999" from-port="1" to-layer="4000" to-port="1" />
		<edge from-layer="4000" from-port="2" to-layer="4001" to-port="0" />
		<edge from-layer="4001" from-port="2" to-layer="4003" to-port="0" />
		<edge from-layer="4002" from-port="0" to-layer="4003" to-port="1" />
		<edge from-layer="4003" from-port="2" to-layer="4004" to-port="2" />
		<edge from-layer="4004" from-port="3" to-layer="4006" to-port="0" />
		<edge from-layer="4005" from-port="0" to-layer="4006" to-port="1" />
		<edge from-layer="4006" from-port="2" to-layer="4012" to-port="0" />
		<edge from-layer="4007" from-port="0" to-layer="4011" to-port="1" />
		<edge from-layer="4008" from-port="2" to-layer="4010" to-port="0" />
		<edge from-layer="4009" from-port="0" to-layer="4010" to-port="1" />
		<edge from-layer="4010" from-port="2" to-layer="4011" to-port="2" />
		<edge from-layer="4011" from-port="3" to-layer="4012" to-port="1" />
		<edge from-layer="4012" from-port="2" to-layer="4015" to-port="0" />
		<edge from-layer="4013" from-port="0" to-layer="4014" to-port="0" />
		<edge from-layer="4014" from-port="1" to-layer="4015" to-port="1" />
		<edge from-layer="4015" from-port="2" to-layer="4018" to-port="0" />
		<edge from-layer="4016" from-port="0" to-layer="4017" to-port="0" />
		<edge from-layer="4017" from-port="1" to-layer="4018" to-port="1" />
		<edge from-layer="4018" from-port="2" to-layer="4019" to-port="0" />
		<edge from-layer="4019" from-port="2" to-layer="4060" to-port="1" />
		<edge from-layer="4019" from-port="2" to-layer="4021" to-port="0" />
		<edge from-layer="4020" from-port="0" to-layer="4021" to-port="1" />
		<edge from-layer="4021" from-port="2" to-layer="4024" to-port="0" />
		<edge from-layer="4022" from-port="0" to-layer="4023" to-port="0" />
		<edge from-layer="4023" from-port="1" to-layer="4024" to-port="1" />
		<edge from-layer="4024" from-port="2" to-layer="4027" to-port="0" />
		<edge from-layer="4025" from-port="0" to-layer="4026" to-port="0" />
		<edge from-layer="4026" from-port="1" to-layer="4027" to-port="1" />
		<edge from-layer="4027" from-port="2" to-layer="4030" to-port="0" />
		<edge from-layer="4028" from-port="0" to-layer="4029" to-port="0" />
		<edge from-layer="4029" from-port="1" to-layer="4030" to-port="1" />
		<edge from-layer="4030" from-port="2" to-layer="4032" to-port="0" />
		<edge from-layer="4031" from-port="0" to-layer="4032" to-port="1" />
		<edge from-layer="4032" from-port="2" to-layer="4034" to-port="0" />
		<edge from-layer="4033" from-port="0" to-layer="4034" to-port="1" />
		<edge from-layer="4034" from-port="2" to-layer="4049" to-port="0" />
		<edge from-layer="4035" from-port="0" to-layer="4036" to-port="0" />
		<edge from-layer="4036" from-port="1" to-layer="4037" to-port="1" />
		<edge from-layer="4037" from-port="2" to-layer="4039" to-port="0" />
		<edge from-layer="4038" from-port="0" to-layer="4039" to-port="1" />
		<edge from-layer="4039" from-port="2" to-layer="4041" to-port="0" />
		<edge from-layer="4040" from-port="0" to-layer="4041" to-port="1" />
		<edge from-layer="4041" from-port="2" to-layer="4049" to-port="1" />
		<edge from-layer="4042" from-port="0" to-layer="4043" to-port="0" />
		<edge from-layer="4043" from-port="1" to-layer="4044" to-port="1" />
		<edge from-layer="4044" from-port="2" to-layer="4046" to-port="0" />
		<edge from-layer="4045" from-port="0" to-layer="4046" to-port="1" />
		<edge from-layer="4046" from-port="2" to-layer="4048" to-port="0" />
		<edge from-layer="4047" from-port="0" to-layer="4048" to-port="1" />
		<edge from-layer="4048" from-port="2" to-layer="4049" to-port="2" />
		<edge from-layer="4049" from-port="3" to-layer="4051" to-port="0" />
		<edge from-layer="4050" from-port="0" to-layer="4051" to-port="1" />
		<edge from-layer="4051" from-port="2" to-layer="4053" to-port="0" />
		<edge from-layer="4052" from-port="0" to-layer="4053" to-port="1" />
		<edge from-layer="4053" from-port="2" to-layer="4056" to-port="0" />
		<edge from-layer="4054" from-port="0" to-layer="4055" to-port="0" />
		<edge from-layer="4055" from-port="1" to-layer="4056" to-port="1" />
		<edge from-layer="4056" from-port="2" to-layer="4059" to-port="0" />
		<edge from-layer="4057" from-port="0" to-layer="4058" to-port="0" />
		<edge from-layer="4058" from-port="1" to-layer="4059" to-port="1" />
		<edge from-layer="4059" from-port="2" to-layer="4060" to-port="0" />
		<edge from-layer="4060" from-port="2" to-layer="4096" to-port="1" />
		<edge from-layer="4060" from-port="2" to-layer="4062" to-port="0" />
		<edge from-layer="4061" from-port="0" to-layer="4062" to-port="1" />
		<edge from-layer="4062" from-port="2" to-layer="4065" to-port="0" />
		<edge from-layer="4063" from-port="0" to-layer="4064" to-port="0" />
		<edge from-layer="4064" from-port="1" to-layer="4065" to-port="1" />
		<edge from-layer="4065" from-port="2" to-layer="4068" to-port="0" />
		<edge from-layer="4066" from-port="0" to-layer="4067" to-port="0" />
		<edge from-layer="4067" from-port="1" to-layer="4068" to-port="1" />
		<edge from-layer="4068" from-port="2" to-layer="4071" to-port="0" />
		<edge from-layer="4069" from-port="0" to-layer="4070" to-port="0" />
		<edge from-layer="4070" from-port="1" to-layer="4071" to-port="1" />
		<edge from-layer="4071" from-port="2" to-layer="4074" to-port="0" />
		<edge from-layer="4072" from-port="0" to-layer="4073" to-port="0" />
		<edge from-layer="4073" from-port="1" to-layer="4074" to-port="1" />
		<edge from-layer="4074" from-port="2" to-layer="4087" to-port="0" />
		<edge from-layer="4074" from-port="2" to-layer="4075" to-port="0" />
		<edge from-layer="4075" from-port="1" to-layer="4077" to-port="0" />
		<edge from-layer="4076" from-port="0" to-layer="4080" to-port="1" />
		<edge from-layer="4076" from-port="0" to-layer="4077" to-port="2" />
		<edge from-layer="4077" from-port="3" to-layer="4078" to-port="0" />
		<edge from-layer="4077" from-port="3" to-layer="4079" to-port="0" />
		<edge from-layer="4078" from-port="2" to-layer="4082" to-port="0" />
		<edge from-layer="4079" from-port="2" to-layer="4080" to-port="0" />
		<edge from-layer="4080" from-port="2" to-layer="4081" to-port="0" />
		<edge from-layer="4081" from-port="1" to-layer="4082" to-port="1" />
		<edge from-layer="4082" from-port="2" to-layer="4084" to-port="0" />
		<edge from-layer="4083" from-port="0" to-layer="4084" to-port="1" />
		<edge from-layer="4084" from-port="2" to-layer="4086" to-port="0" />
		<edge from-layer="4085" from-port="0" to-layer="4086" to-port="1" />
		<edge from-layer="4086" from-port="2" to-layer="4087" to-port="2" />
		<edge from-layer="4087" from-port="4" to-layer="4088" to-port="0" />
		<edge from-layer="4087" from-port="3" to-layer="4089" to-port="0" />
		<edge from-layer="4088" from-port="1" to-layer="4089" to-port="1" />
		<edge from-layer="4089" from-port="2" to-layer="4092" to-port="0" />
		<edge from-layer="4090" from-port="0" to-layer="4091" to-port="0" />
		<edge from-layer="4091" from-port="1" to-layer="4092" to-port="1" />
		<edge from-layer="4092" from-port="2" to-layer="4095" to-port="0" />
		<edge from-layer="4093" from-port="0" to-layer="4094" to-port="0" />
		<edge from-layer="4094" from-port="1" to-layer="4095" to-port="1" />
		<edge from-layer="4095" from-port="2" to-layer="4096" to-port="0" />
		<edge from-layer="4096" from-port="2" to-layer="4103" to-port="0" />
		<edge from-layer="4097" from-port="0" to-layer="4098" to-port="1" />
		<edge from-layer="4098" from-port="2" to-layer="4102" to-port="1" />
		<edge from-layer="4099" from-port="0" to-layer="4100" to-port="1" />
		<edge from-layer="4100" from-port="2" to-layer="4102" to-port="2" />
		<edge from-layer="4101" from-port="0" to-layer="4102" to-port="3" />
		<edge from-layer="4102" from-port="4" to-layer="4103" to-port="1" />
		<edge from-layer="4103" from-port="2" to-layer="4105" to-port="0" />
		<edge from-layer="4104" from-port="0" to-layer="4105" to-port="1" />
		<edge from-layer="4105" from-port="2" to-layer="4108" to-port="0" />
		<edge from-layer="4106" from-port="0" to-layer="4107" to-port="0" />
		<edge from-layer="4107" from-port="1" to-layer="4108" to-port="1" />
		<edge from-layer="4108" from-port="2" to-layer="4111" to-port="0" />
		<edge from-layer="4109" from-port="0" to-layer="4110" to-port="0" />
		<edge from-layer="4110" from-port="1" to-layer="4111" to-port="1" />
		<edge from-layer="4111" from-port="2" to-layer="4112" to-port="0" />
		<edge from-layer="4112" from-port="2" to-layer="4113" to-port="0" />
		<edge from-layer="4113" from-port="2" to-layer="4121" to-port="0" />
		<edge from-layer="4113" from-port="2" to-layer="4116" to-port="0" />
		<edge from-layer="4114" from-port="0" to-layer="4115" to-port="0" />
		<edge from-layer="4115" from-port="1" to-layer="4116" to-port="1" />
		<edge from-layer="4116" from-port="2" to-layer="4119" to-port="0" />
		<edge from-layer="4117" from-port="0" to-layer="4118" to-port="0" />
		<edge from-layer="4118" from-port="1" to-layer="4119" to-port="1" />
		<edge from-layer="4119" from-port="2" to-layer="4176" to-port="0" />
		<edge from-layer="4120" from-port="0" to-layer="4121" to-port="1" />
		<edge from-layer="4121" from-port="2" to-layer="4123" to-port="0" />
		<edge from-layer="4122" from-port="0" to-layer="4123" to-port="1" />
		<edge from-layer="4123" from-port="2" to-layer="4125" to-port="0" />
		<edge from-layer="4124" from-port="0" to-layer="4125" to-port="1" />
		<edge from-layer="4125" from-port="2" to-layer="4128" to-port="0" />
		<edge from-layer="4126" from-port="0" to-layer="4127" to-port="0" />
		<edge from-layer="4127" from-port="1" to-layer="4128" to-port="1" />
		<edge from-layer="4128" from-port="2" to-layer="4131" to-port="0" />
		<edge from-layer="4129" from-port="0" to-layer="4130" to-port="0" />
		<edge from-layer="4130" from-port="1" to-layer="4131" to-port="1" />
		<edge from-layer="4131" from-port="2" to-layer="4132" to-port="0" />
		<edge from-layer="4132" from-port="1" to-layer="4135" to-port="0" />
		<edge from-layer="4133" from-port="0" to-layer="4134" to-port="0" />
		<edge from-layer="4134" from-port="1" to-layer="4135" to-port="1" />
		<edge from-layer="4135" from-port="2" to-layer="4138" to-port="0" />
		<edge from-layer="4136" from-port="0" to-layer="4137" to-port="0" />
		<edge from-layer="4137" from-port="1" to-layer="4138" to-port="1" />
		<edge from-layer="4138" from-port="2" to-layer="4156" to-port="0" />
		<edge from-layer="4139" from-port="1" to-layer="4142" to-port="0" />
		<edge from-layer="4140" from-port="0" to-layer="4141" to-port="0" />
		<edge from-layer="4141" from-port="1" to-layer="4142" to-port="1" />
		<edge from-layer="4142" from-port="2" to-layer="4145" to-port="0" />
		<edge from-layer="4143" from-port="0" to-layer="4144" to-port="0" />
		<edge from-layer="4144" from-port="1" to-layer="4145" to-port="1" />
		<edge from-layer="4145" from-port="2" to-layer="4149" to-port="0" />
		<edge from-layer="4146" from-port="0" to-layer="4149" to-port="1" />
		<edge from-layer="4147" from-port="0" to-layer="4149" to-port="2" />
		<edge from-layer="4148" from-port="0" to-layer="4149" to-port="3" />
		<edge from-layer="4149" from-port="4" to-layer="4153" to-port="0" />
		<edge from-layer="4150" from-port="0" to-layer="4153" to-port="1" />
		<edge from-layer="4151" from-port="0" to-layer="4153" to-port="2" />
		<edge from-layer="4152" from-port="0" to-layer="4153" to-port="3" />
		<edge from-layer="4153" from-port="4" to-layer="4154" to-port="0" />
		<edge from-layer="4154" from-port="2" to-layer="4155" to-port="0" />
		<edge from-layer="4155" from-port="2" to-layer="4156" to-port="1" />
		<edge from-layer="4156" from-port="2" to-layer="4161" to-port="0" />
		<edge from-layer="4156" from-port="2" to-layer="4158" to-port="0" />
		<edge from-layer="4157" from-port="0" to-layer="4158" to-port="1" />
		<edge from-layer="4158" from-port="2" to-layer="4160" to-port="0" />
		<edge from-layer="4159" from-port="0" to-layer="4160" to-port="1" />
		<edge from-layer="4160" from-port="2" to-layer="4162" to-port="0" />
		<edge from-layer="4161" from-port="1" to-layer="4162" to-port="1" />
		<edge from-layer="4162" from-port="2" to-layer="4165" to-port="0" />
		<edge from-layer="4163" from-port="0" to-layer="4164" to-port="0" />
		<edge from-layer="4164" from-port="1" to-layer="4165" to-port="1" />
		<edge from-layer="4165" from-port="2" to-layer="4168" to-port="0" />
		<edge from-layer="4166" from-port="0" to-layer="4167" to-port="0" />
		<edge from-layer="4167" from-port="1" to-layer="4168" to-port="1" />
		<edge from-layer="4168" from-port="2" to-layer="4169" to-port="0" />
		<edge from-layer="4169" from-port="1" to-layer="4172" to-port="0" />
		<edge from-layer="4170" from-port="0" to-layer="4171" to-port="0" />
		<edge from-layer="4171" from-port="1" to-layer="4172" to-port="1" />
		<edge from-layer="4172" from-port="2" to-layer="4175" to-port="0" />
		<edge from-layer="4173" from-port="0" to-layer="4174" to-port="0" />
		<edge from-layer="4174" from-port="1" to-layer="4175" to-port="1" />
		<edge from-layer="4175" from-port="2" to-layer="4176" to-port="1" />
		<edge from-layer="4176" from-port="2" to-layer="4178" to-port="0" />
		<edge from-layer="4176" from-port="2" to-layer="4342" to-port="1" />
		<edge from-layer="4177" from-port="0" to-layer="4178" to-port="1" />
		<edge from-layer="4178" from-port="2" to-layer="4180" to-port="0" />
		<edge from-layer="4179" from-port="0" to-layer="4180" to-port="1" />
		<edge from-layer="4180" from-port="2" to-layer="4182" to-port="0" />
		<edge from-layer="4181" from-port="0" to-layer="4182" to-port="1" />
		<edge from-layer="4182" from-port="2" to-layer="4185" to-port="0" />
		<edge from-layer="4183" from-port="0" to-layer="4184" to-port="0" />
		<edge from-layer="4184" from-port="1" to-layer="4185" to-port="1" />
		<edge from-layer="4185" from-port="2" to-layer="4188" to-port="0" />
		<edge from-layer="4186" from-port="0" to-layer="4187" to-port="0" />
		<edge from-layer="4187" from-port="1" to-layer="4188" to-port="1" />
		<edge from-layer="4188" from-port="2" to-layer="4191" to-port="0" />
		<edge from-layer="4189" from-port="0" to-layer="4190" to-port="0" />
		<edge from-layer="4190" from-port="1" to-layer="4191" to-port="1" />
		<edge from-layer="4191" from-port="2" to-layer="4194" to-port="0" />
		<edge from-layer="4192" from-port="0" to-layer="4193" to-port="0" />
		<edge from-layer="4193" from-port="1" to-layer="4194" to-port="1" />
		<edge from-layer="4194" from-port="2" to-layer="4196" to-port="0" />
		<edge from-layer="4195" from-port="0" to-layer="4196" to-port="1" />
		<edge from-layer="4196" from-port="2" to-layer="4198" to-port="0" />
		<edge from-layer="4197" from-port="0" to-layer="4198" to-port="1" />
		<edge from-layer="4198" from-port="2" to-layer="4254" to-port="1" />
		<edge from-layer="4198" from-port="2" to-layer="4200" to-port="0" />
		<edge from-layer="4199" from-port="0" to-layer="4200" to-port="1" />
		<edge from-layer="4200" from-port="2" to-layer="4203" to-port="0" />
		<edge from-layer="4201" from-port="0" to-layer="4202" to-port="0" />
		<edge from-layer="4202" from-port="1" to-layer="4203" to-port="1" />
		<edge from-layer="4203" from-port="2" to-layer="4206" to-port="0" />
		<edge from-layer="4204" from-port="0" to-layer="4205" to-port="0" />
		<edge from-layer="4205" from-port="1" to-layer="4206" to-port="1" />
		<edge from-layer="4206" from-port="2" to-layer="4218" to-port="0" />
		<edge from-layer="4206" from-port="2" to-layer="4210" to-port="0" />
		<edge from-layer="4206" from-port="2" to-layer="4209" to-port="0" />
		<edge from-layer="4206" from-port="2" to-layer="4235" to-port="0" />
		<edge from-layer="4207" from-port="0" to-layer="4208" to-port="0" />
		<edge from-layer="4208" from-port="1" to-layer="4209" to-port="1" />
		<edge from-layer="4209" from-port="2" to-layer="4227" to-port="0" />
		<edge from-layer="4210" from-port="1" to-layer="4213" to-port="0" />
		<edge from-layer="4211" from-port="0" to-layer="4213" to-port="1" />
		<edge from-layer="4212" from-port="0" to-layer="4213" to-port="2" />
		<edge from-layer="4213" from-port="3" to-layer="4246" to-port="0" />
		<edge from-layer="4213" from-port="3" to-layer="4226" to-port="0" />
		<edge from-layer="4214" from-port="0" to-layer="4226" to-port="1" />
		<edge from-layer="4215" from-port="0" to-layer="4226" to-port="2" />
		<edge from-layer="4216" from-port="0" to-layer="4217" to-port="0" />
		<edge from-layer="4217" from-port="1" to-layer="4218" to-port="1" />
		<edge from-layer="4218" from-port="2" to-layer="4230" to-port="0" />
		<edge from-layer="4218" from-port="2" to-layer="4219" to-port="0" />
		<edge from-layer="4219" from-port="1" to-layer="4221" to-port="0" />
		<edge from-layer="4220" from-port="0" to-layer="4221" to-port="2" />
		<edge from-layer="4221" from-port="3" to-layer="4222" to-port="0" />
		<edge from-layer="4222" from-port="2" to-layer="4223" to-port="0" />
		<edge from-layer="4223" from-port="1" to-layer="4225" to-port="0" />
		<edge from-layer="4223" from-port="1" to-layer="4243" to-port="0" />
		<edge from-layer="4224" from-port="0" to-layer="4225" to-port="1" />
		<edge from-layer="4225" from-port="2" to-layer="4226" to-port="3" />
		<edge from-layer="4226" from-port="4" to-layer="4227" to-port="1" />
		<edge from-layer="4226" from-port="4" to-layer="4230" to-port="1" />
		<edge from-layer="4226" from-port="4" to-layer="4236" to-port="1" />
		<edge from-layer="4227" from-port="2" to-layer="4229" to-port="0" />
		<edge from-layer="4228" from-port="0" to-layer="4229" to-port="1" />
		<edge from-layer="4229" from-port="2" to-layer="4239" to-port="0" />
		<edge from-layer="4230" from-port="2" to-layer="4232" to-port="0" />
		<edge from-layer="4231" from-port="0" to-layer="4232" to-port="1" />
		<edge from-layer="4232" from-port="2" to-layer="4239" to-port="1" />
		<edge from-layer="4233" from-port="0" to-layer="4234" to-port="0" />
		<edge from-layer="4234" from-port="1" to-layer="4235" to-port="1" />
		<edge from-layer="4235" from-port="2" to-layer="4236" to-port="0" />
		<edge from-layer="4236" from-port="2" to-layer="4238" to-port="0" />
		<edge from-layer="4237" from-port="0" to-layer="4238" to-port="1" />
		<edge from-layer="4238" from-port="2" to-layer="4239" to-port="2" />
		<edge from-layer="4239" from-port="3" to-layer="4241" to-port="0" />
		<edge from-layer="4240" from-port="0" to-layer="4241" to-port="1" />
		<edge from-layer="4241" from-port="2" to-layer="4247" to-port="0" />
		<edge from-layer="4242" from-port="0" to-layer="4246" to-port="1" />
		<edge from-layer="4243" from-port="2" to-layer="4245" to-port="0" />
		<edge from-layer="4244" from-port="0" to-layer="4245" to-port="1" />
		<edge from-layer="4245" from-port="2" to-layer="4246" to-port="2" />
		<edge from-layer="4246" from-port="3" to-layer="4247" to-port="1" />
		<edge from-layer="4247" from-port="2" to-layer="4250" to-port="0" />
		<edge from-layer="4248" from-port="0" to-layer="4249" to-port="0" />
		<edge from-layer="4249" from-port="1" to-layer="4250" to-port="1" />
		<edge from-layer="4250" from-port="2" to-layer="4253" to-port="0" />
		<edge from-layer="4251" from-port="0" to-layer="4252" to-port="0" />
		<edge from-layer="4252" from-port="1" to-layer="4253" to-port="1" />
		<edge from-layer="4253" from-port="2" to-layer="4254" to-port="0" />
		<edge from-layer="4254" from-port="2" to-layer="4256" to-port="0" />
		<edge from-layer="4254" from-port="2" to-layer="4295" to-port="1" />
		<edge from-layer="4255" from-port="0" to-layer="4256" to-port="1" />
		<edge from-layer="4256" from-port="2" to-layer="4259" to-port="0" />
		<edge from-layer="4257" from-port="0" to-layer="4258" to-port="0" />
		<edge from-layer="4258" from-port="1" to-layer="4259" to-port="1" />
		<edge from-layer="4259" from-port="2" to-layer="4262" to-port="0" />
		<edge from-layer="4260" from-port="0" to-layer="4261" to-port="0" />
		<edge from-layer="4261" from-port="1" to-layer="4262" to-port="1" />
		<edge from-layer="4262" from-port="2" to-layer="4265" to-port="0" />
		<edge from-layer="4263" from-port="0" to-layer="4264" to-port="0" />
		<edge from-layer="4264" from-port="1" to-layer="4265" to-port="1" />
		<edge from-layer="4265" from-port="2" to-layer="4267" to-port="0" />
		<edge from-layer="4266" from-port="0" to-layer="4267" to-port="1" />
		<edge from-layer="4267" from-port="2" to-layer="4269" to-port="0" />
		<edge from-layer="4268" from-port="0" to-layer="4269" to-port="1" />
		<edge from-layer="4269" from-port="2" to-layer="4284" to-port="0" />
		<edge from-layer="4270" from-port="0" to-layer="4271" to-port="0" />
		<edge from-layer="4271" from-port="1" to-layer="4272" to-port="1" />
		<edge from-layer="4272" from-port="2" to-layer="4274" to-port="0" />
		<edge from-layer="4273" from-port="0" to-layer="4274" to-port="1" />
		<edge from-layer="4274" from-port="2" to-layer="4276" to-port="0" />
		<edge from-layer="4275" from-port="0" to-layer="4276" to-port="1" />
		<edge from-layer="4276" from-port="2" to-layer="4284" to-port="1" />
		<edge from-layer="4277" from-port="0" to-layer="4278" to-port="0" />
		<edge from-layer="4278" from-port="1" to-layer="4279" to-port="1" />
		<edge from-layer="4279" from-port="2" to-layer="4281" to-port="0" />
		<edge from-layer="4280" from-port="0" to-layer="4281" to-port="1" />
		<edge from-layer="4281" from-port="2" to-layer="4283" to-port="0" />
		<edge from-layer="4282" from-port="0" to-layer="4283" to-port="1" />
		<edge from-layer="4283" from-port="2" to-layer="4284" to-port="2" />
		<edge from-layer="4284" from-port="3" to-layer="4286" to-port="0" />
		<edge from-layer="4285" from-port="0" to-layer="4286" to-port="1" />
		<edge from-layer="4286" from-port="2" to-layer="4288" to-port="0" />
		<edge from-layer="4287" from-port="0" to-layer="4288" to-port="1" />
		<edge from-layer="4288" from-port="2" to-layer="4291" to-port="0" />
		<edge from-layer="4289" from-port="0" to-layer="4290" to-port="0" />
		<edge from-layer="4290" from-port="1" to-layer="4291" to-port="1" />
		<edge from-layer="4291" from-port="2" to-layer="4294" to-port="0" />
		<edge from-layer="4292" from-port="0" to-layer="4293" to-port="0" />
		<edge from-layer="4293" from-port="1" to-layer="4294" to-port="1" />
		<edge from-layer="4294" from-port="2" to-layer="4295" to-port="0" />
		<edge from-layer="4295" from-port="2" to-layer="4331" to-port="1" />
		<edge from-layer="4295" from-port="2" to-layer="4297" to-port="0" />
		<edge from-layer="4296" from-port="0" to-layer="4297" to-port="1" />
		<edge from-layer="4297" from-port="2" to-layer="4300" to-port="0" />
		<edge from-layer="4298" from-port="0" to-layer="4299" to-port="0" />
		<edge from-layer="4299" from-port="1" to-layer="4300" to-port="1" />
		<edge from-layer="4300" from-port="2" to-layer="4303" to-port="0" />
		<edge from-layer="4301" from-port="0" to-layer="4302" to-port="0" />
		<edge from-layer="4302" from-port="1" to-layer="4303" to-port="1" />
		<edge from-layer="4303" from-port="2" to-layer="4306" to-port="0" />
		<edge from-layer="4304" from-port="0" to-layer="4305" to-port="0" />
		<edge from-layer="4305" from-port="1" to-layer="4306" to-port="1" />
		<edge from-layer="4306" from-port="2" to-layer="4309" to-port="0" />
		<edge from-layer="4307" from-port="0" to-layer="4308" to-port="0" />
		<edge from-layer="4308" from-port="1" to-layer="4309" to-port="1" />
		<edge from-layer="4309" from-port="2" to-layer="4322" to-port="0" />
		<edge from-layer="4309" from-port="2" to-layer="4310" to-port="0" />
		<edge from-layer="4310" from-port="1" to-layer="4312" to-port="0" />
		<edge from-layer="4311" from-port="0" to-layer="4315" to-port="1" />
		<edge from-layer="4311" from-port="0" to-layer="4312" to-port="2" />
		<edge from-layer="4312" from-port="3" to-layer="4314" to-port="0" />
		<edge from-layer="4312" from-port="3" to-layer="4313" to-port="0" />
		<edge from-layer="4313" from-port="2" to-layer="4317" to-port="0" />
		<edge from-layer="4314" from-port="2" to-layer="4315" to-port="0" />
		<edge from-layer="4315" from-port="2" to-layer="4316" to-port="0" />
		<edge from-layer="4316" from-port="1" to-layer="4317" to-port="1" />
		<edge from-layer="4317" from-port="2" to-layer="4319" to-port="0" />
		<edge from-layer="4318" from-port="0" to-layer="4319" to-port="1" />
		<edge from-layer="4319" from-port="2" to-layer="4321" to-port="0" />
		<edge from-layer="4320" from-port="0" to-layer="4321" to-port="1" />
		<edge from-layer="4321" from-port="2" to-layer="4322" to-port="2" />
		<edge from-layer="4322" from-port="3" to-layer="4324" to-port="0" />
		<edge from-layer="4322" from-port="4" to-layer="4323" to-port="0" />
		<edge from-layer="4323" from-port="1" to-layer="4324" to-port="1" />
		<edge from-layer="4324" from-port="2" to-layer="4327" to-port="0" />
		<edge from-layer="4325" from-port="0" to-layer="4326" to-port="0" />
		<edge from-layer="4326" from-port="1" to-layer="4327" to-port="1" />
		<edge from-layer="4327" from-port="2" to-layer="4330" to-port="0" />
		<edge from-layer="4328" from-port="0" to-layer="4329" to-port="0" />
		<edge from-layer="4329" from-port="1" to-layer="4330" to-port="1" />
		<edge from-layer="4330" from-port="2" to-layer="4331" to-port="0" />
		<edge from-layer="4331" from-port="2" to-layer="4333" to-port="0" />
		<edge from-layer="4332" from-port="0" to-layer="4333" to-port="1" />
		<edge from-layer="4333" from-port="2" to-layer="4335" to-port="0" />
		<edge from-layer="4334" from-port="0" to-layer="4335" to-port="1" />
		<edge from-layer="4335" from-port="2" to-layer="4338" to-port="0" />
		<edge from-layer="4336" from-port="0" to-layer="4337" to-port="0" />
		<edge from-layer="4337" from-port="1" to-layer="4338" to-port="1" />
		<edge from-layer="4338" from-port="2" to-layer="4341" to-port="0" />
		<edge from-layer="4339" from-port="0" to-layer="4340" to-port="0" />
		<edge from-layer="4340" from-port="1" to-layer="4341" to-port="1" />
		<edge from-layer="4341" from-port="2" to-layer="4342" to-port="0" />
		<edge from-layer="4342" from-port="2" to-layer="4344" to-port="0" />
		<edge from-layer="4343" from-port="0" to-layer="4344" to-port="1" />
		<edge from-layer="4344" from-port="2" to-layer="4346" to-port="0" />
		<edge from-layer="4345" from-port="0" to-layer="4346" to-port="1" />
		<edge from-layer="4346" from-port="2" to-layer="4348" to-port="0" />
		<edge from-layer="4347" from-port="0" to-layer="4348" to-port="1" />
		<edge from-layer="4348" from-port="2" to-layer="4351" to-port="0" />
		<edge from-layer="4349" from-port="0" to-layer="4350" to-port="0" />
		<edge from-layer="4350" from-port="1" to-layer="4351" to-port="1" />
		<edge from-layer="4351" from-port="2" to-layer="4354" to-port="0" />
		<edge from-layer="4352" from-port="0" to-layer="4353" to-port="0" />
		<edge from-layer="4353" from-port="1" to-layer="4354" to-port="1" />
		<edge from-layer="4354" from-port="2" to-layer="4355" to-port="0" />
		<edge from-layer="4355" from-port="1" to-layer="4358" to-port="0" />
		<edge from-layer="4356" from-port="0" to-layer="4357" to-port="0" />
		<edge from-layer="4357" from-port="1" to-layer="4358" to-port="1" />
		<edge from-layer="4358" from-port="2" to-layer="4361" to-port="0" />
		<edge from-layer="4359" from-port="0" to-layer="4360" to-port="0" />
		<edge from-layer="4360" from-port="1" to-layer="4361" to-port="1" />
		<edge from-layer="4361" from-port="2" to-layer="4362" to-port="0" />
	</edges>
	<rt_info>
		<Runtime_version value="2023.3.0-13775-ceeafaf64f3-releases/2023/3" />
		<conversion_parameters>
			<framework value="pytorch" />
			<is_python_object value="True" />
		</conversion_parameters>
	</rt_info>
</net>
